<?xml version="1.0" ?>
<net name="text-detection-0004" version="10">
	<layers>
		<layer id="0" name="Placeholder" type="Parameter" version="opset1">
			<data element_type="f16" shape="1,3,768,1280"/>
			<output>
				<port id="0" precision="FP16">
					<dim>1</dim>
					<dim>3</dim>
					<dim>768</dim>
					<dim>1280</dim>
				</port>
			</output>
		</layer>
		<layer id="1" name="Placeholder/reverse_input_channels18010/Concat18029_const372_const" type="Const" version="opset1">
			<data element_type="f16" offset="0" shape="1,3,1,1" size="6"/>
			<output>
				<port id="1" precision="FP16">
					<dim>1</dim>
					<dim>3</dim>
					<dim>1</dim>
					<dim>1</dim>
				</port>
			</output>
		</layer>
		<layer id="2" name="Mul_/Fused_Mul_" type="Multiply" version="opset1">
			<input>
				<port id="0">
					<dim>1</dim>
					<dim>3</dim>
					<dim>768</dim>
					<dim>1280</dim>
				</port>
				<port id="1">
					<dim>1</dim>
					<dim>3</dim>
					<dim>1</dim>
					<dim>1</dim>
				</port>
			</input>
			<output>
				<port id="2" precision="FP16">
					<dim>1</dim>
					<dim>3</dim>
					<dim>768</dim>
					<dim>1280</dim>
				</port>
			</output>
		</layer>
		<layer id="3" name="Placeholder/reverse_input_channels18012/Concat18037_const374_const" type="Const" version="opset1">
			<data element_type="f16" offset="6" shape="1,3,1,1" size="6"/>
			<output>
				<port id="1" precision="FP16">
					<dim>1</dim>
					<dim>3</dim>
					<dim>1</dim>
					<dim>1</dim>
				</port>
			</output>
		</layer>
		<layer id="4" name="Add_/Fused_Add_" type="Add" version="opset1">
			<input>
				<port id="0">
					<dim>1</dim>
					<dim>3</dim>
					<dim>768</dim>
					<dim>1280</dim>
				</port>
				<port id="1">
					<dim>1</dim>
					<dim>3</dim>
					<dim>1</dim>
					<dim>1</dim>
				</port>
			</input>
			<output>
				<port id="2" precision="FP16">
					<dim>1</dim>
					<dim>3</dim>
					<dim>768</dim>
					<dim>1280</dim>
				</port>
			</output>
		</layer>
		<layer id="5" name="16541658_const" type="Const" version="opset1">
			<data element_type="f16" offset="12" shape="" size="2"/>
			<output>
				<port id="1" precision="FP16"/>
			</output>
		</layer>
		<layer id="6" name="16551659_const" type="Const" version="opset1">
			<data element_type="f16" offset="14" shape="" size="2"/>
			<output>
				<port id="1" precision="FP16"/>
			</output>
		</layer>
		<layer id="7" name="16561660_const" type="Const" version="opset1">
			<data element_type="f16" offset="12" shape="" size="2"/>
			<output>
				<port id="1" precision="FP16"/>
			</output>
		</layer>
		<layer id="8" name="16571661_const" type="Const" version="opset1">
			<data element_type="f16" offset="14" shape="" size="2"/>
			<output>
				<port id="1" precision="FP16"/>
			</output>
		</layer>
		<layer id="9" name="model/Conv1/Conv2D/fq_input_0" type="FakeQuantize" version="opset1">
			<data levels="256"/>
			<input>
				<port id="0">
					<dim>1</dim>
					<dim>3</dim>
					<dim>768</dim>
					<dim>1280</dim>
				</port>
				<port id="1"/>
				<port id="2"/>
				<port id="3"/>
				<port id="4"/>
			</input>
			<output>
				<port id="5" precision="FP16">
					<dim>1</dim>
					<dim>3</dim>
					<dim>768</dim>
					<dim>1280</dim>
				</port>
			</output>
		</layer>
		<layer id="10" name="model/Conv1/Conv2D/fq_weights_1/Convert_to_float/Cast_06486_const" type="Const" version="opset1">
			<data element_type="u8" offset="16" shape="48,3,3,3" size="1296"/>
			<output>
				<port id="1" precision="U8">
					<dim>48</dim>
					<dim>3</dim>
					<dim>3</dim>
					<dim>3</dim>
				</port>
			</output>
		</layer>
		<layer id="11" name="model/Conv1/Conv2D/fq_weights_1/Convert_to_float" type="Convert" version="opset1">
			<data destination_type="f16"/>
			<input>
				<port id="0">
					<dim>48</dim>
					<dim>3</dim>
					<dim>3</dim>
					<dim>3</dim>
				</port>
			</input>
			<output>
				<port id="1" precision="FP16">
					<dim>48</dim>
					<dim>3</dim>
					<dim>3</dim>
					<dim>3</dim>
				</port>
			</output>
		</layer>
		<layer id="12" name="model/Conv1/Conv2D/fq_weights_1/Copy/out_low5570_const" type="Const" version="opset1">
			<data element_type="f16" offset="1312" shape="1" size="2"/>
			<output>
				<port id="1" precision="FP16">
					<dim>1</dim>
				</port>
			</output>
		</layer>
		<layer id="13" name="model/Conv1/Conv2D/fq_weights_1/Copy/out_high5571_const" type="Const" version="opset1">
			<data element_type="f16" offset="1314" shape="1" size="2"/>
			<output>
				<port id="1" precision="FP16">
					<dim>1</dim>
				</port>
			</output>
		</layer>
		<layer id="14" name="16661670_const" type="Const" version="opset1">
			<data element_type="f16" offset="1316" shape="48,1,1,1" size="96"/>
			<output>
				<port id="1" precision="FP16">
					<dim>48</dim>
					<dim>1</dim>
					<dim>1</dim>
					<dim>1</dim>
				</port>
			</output>
		</layer>
		<layer id="15" name="16671671_const" type="Const" version="opset1">
			<data element_type="f16" offset="1412" shape="48,1,1,1" size="96"/>
			<output>
				<port id="1" precision="FP16">
					<dim>48</dim>
					<dim>1</dim>
					<dim>1</dim>
					<dim>1</dim>
				</port>
			</output>
		</layer>
		<layer id="16" name="model/Conv1/Conv2D/fq_weights_1" type="FakeQuantize" version="opset1">
			<data levels="255"/>
			<input>
				<port id="0">
					<dim>48</dim>
					<dim>3</dim>
					<dim>3</dim>
					<dim>3</dim>
				</port>
				<port id="1">
					<dim>1</dim>
				</port>
				<port id="2">
					<dim>1</dim>
				</port>
				<port id="3">
					<dim>48</dim>
					<dim>1</dim>
					<dim>1</dim>
					<dim>1</dim>
				</port>
				<port id="4">
					<dim>48</dim>
					<dim>1</dim>
					<dim>1</dim>
					<dim>1</dim>
				</port>
			</input>
			<output>
				<port id="5" precision="FP16">
					<dim>48</dim>
					<dim>3</dim>
					<dim>3</dim>
					<dim>3</dim>
				</port>
			</output>
		</layer>
		<layer id="17" name="model/Conv1/Conv2D" type="Convolution" version="opset1">
			<data dilations="1,1" output_padding="0,0" pads_begin="0,0" pads_end="1,1" strides="2,2"/>
			<input>
				<port id="0">
					<dim>1</dim>
					<dim>3</dim>
					<dim>768</dim>
					<dim>1280</dim>
				</port>
				<port id="1">
					<dim>48</dim>
					<dim>3</dim>
					<dim>3</dim>
					<dim>3</dim>
				</port>
			</input>
			<output>
				<port id="2" precision="FP16">
					<dim>1</dim>
					<dim>48</dim>
					<dim>384</dim>
					<dim>640</dim>
				</port>
			</output>
		</layer>
		<layer id="18" name="data_add_1163511640/copy_const378_const" type="Const" version="opset1">
			<data element_type="f16" offset="1508" shape="1,48,1,1" size="96"/>
			<output>
				<port id="1" precision="FP16">
					<dim>1</dim>
					<dim>48</dim>
					<dim>1</dim>
					<dim>1</dim>
				</port>
			</output>
		</layer>
		<layer id="19" name="model/bn_Conv1/FusedBatchNorm/variance/Fused_Add_" type="Add" version="opset1">
			<input>
				<port id="0">
					<dim>1</dim>
					<dim>48</dim>
					<dim>384</dim>
					<dim>640</dim>
				</port>
				<port id="1">
					<dim>1</dim>
					<dim>48</dim>
					<dim>1</dim>
					<dim>1</dim>
				</port>
			</input>
			<output>
				<port id="2" precision="FP16">
					<dim>1</dim>
					<dim>48</dim>
					<dim>384</dim>
					<dim>640</dim>
				</port>
			</output>
		</layer>
		<layer id="20" name="model/Conv1_relu/Relu6" type="Clamp" version="opset1">
			<data max="6" min="0"/>
			<input>
				<port id="0">
					<dim>1</dim>
					<dim>48</dim>
					<dim>384</dim>
					<dim>640</dim>
				</port>
			</input>
			<output>
				<port id="1" precision="FP16">
					<dim>1</dim>
					<dim>48</dim>
					<dim>384</dim>
					<dim>640</dim>
				</port>
			</output>
		</layer>
		<layer id="21" name="13541358_const" type="Const" version="opset1">
			<data element_type="f16" offset="1604" shape="1,48,1,1" size="96"/>
			<output>
				<port id="1" precision="FP16">
					<dim>1</dim>
					<dim>48</dim>
					<dim>1</dim>
					<dim>1</dim>
				</port>
			</output>
		</layer>
		<layer id="22" name="13551359_const" type="Const" version="opset1">
			<data element_type="f16" offset="1700" shape="1,48,1,1" size="96"/>
			<output>
				<port id="1" precision="FP16">
					<dim>1</dim>
					<dim>48</dim>
					<dim>1</dim>
					<dim>1</dim>
				</port>
			</output>
		</layer>
		<layer id="23" name="13561360_const" type="Const" version="opset1">
			<data element_type="f16" offset="1604" shape="1,48,1,1" size="96"/>
			<output>
				<port id="1" precision="FP16">
					<dim>1</dim>
					<dim>48</dim>
					<dim>1</dim>
					<dim>1</dim>
				</port>
			</output>
		</layer>
		<layer id="24" name="13571361_const" type="Const" version="opset1">
			<data element_type="f16" offset="1700" shape="1,48,1,1" size="96"/>
			<output>
				<port id="1" precision="FP16">
					<dim>1</dim>
					<dim>48</dim>
					<dim>1</dim>
					<dim>1</dim>
				</port>
			</output>
		</layer>
		<layer id="25" name="model/expanded_conv_depthwise/depthwise/fq_input_0" type="FakeQuantize" version="opset1">
			<data levels="256"/>
			<input>
				<port id="0">
					<dim>1</dim>
					<dim>48</dim>
					<dim>384</dim>
					<dim>640</dim>
				</port>
				<port id="1">
					<dim>1</dim>
					<dim>48</dim>
					<dim>1</dim>
					<dim>1</dim>
				</port>
				<port id="2">
					<dim>1</dim>
					<dim>48</dim>
					<dim>1</dim>
					<dim>1</dim>
				</port>
				<port id="3">
					<dim>1</dim>
					<dim>48</dim>
					<dim>1</dim>
					<dim>1</dim>
				</port>
				<port id="4">
					<dim>1</dim>
					<dim>48</dim>
					<dim>1</dim>
					<dim>1</dim>
				</port>
			</input>
			<output>
				<port id="5" precision="FP16">
					<dim>1</dim>
					<dim>48</dim>
					<dim>384</dim>
					<dim>640</dim>
				</port>
			</output>
		</layer>
		<layer id="26" name="model/expanded_conv_depthwise/depthwise/fq_weights_1/Convert_to_float/Cast_06468_const" type="Const" version="opset1">
			<data element_type="u8" offset="1796" shape="48,1,3,3" size="432"/>
			<output>
				<port id="1" precision="U8">
					<dim>48</dim>
					<dim>1</dim>
					<dim>3</dim>
					<dim>3</dim>
				</port>
			</output>
		</layer>
		<layer id="27" name="model/expanded_conv_depthwise/depthwise/fq_weights_1/Convert_to_float" type="Convert" version="opset1">
			<data destination_type="f16"/>
			<input>
				<port id="0">
					<dim>48</dim>
					<dim>1</dim>
					<dim>3</dim>
					<dim>3</dim>
				</port>
			</input>
			<output>
				<port id="1" precision="FP16">
					<dim>48</dim>
					<dim>1</dim>
					<dim>3</dim>
					<dim>3</dim>
				</port>
			</output>
		</layer>
		<layer id="28" name="model/expanded_conv_depthwise/depthwise/fq_weights_1/Copy/out_low5314_const" type="Const" version="opset1">
			<data element_type="f16" offset="1312" shape="1" size="2"/>
			<output>
				<port id="1" precision="FP16">
					<dim>1</dim>
				</port>
			</output>
		</layer>
		<layer id="29" name="model/expanded_conv_depthwise/depthwise/fq_weights_1/Copy/out_high5315_const" type="Const" version="opset1">
			<data element_type="f16" offset="1314" shape="1" size="2"/>
			<output>
				<port id="1" precision="FP16">
					<dim>1</dim>
				</port>
			</output>
		</layer>
		<layer id="30" name="13661370_const" type="Const" version="opset1">
			<data element_type="f16" offset="2228" shape="48,1,1,1" size="96"/>
			<output>
				<port id="1" precision="FP16">
					<dim>48</dim>
					<dim>1</dim>
					<dim>1</dim>
					<dim>1</dim>
				</port>
			</output>
		</layer>
		<layer id="31" name="13671371_const" type="Const" version="opset1">
			<data element_type="f16" offset="2324" shape="48,1,1,1" size="96"/>
			<output>
				<port id="1" precision="FP16">
					<dim>48</dim>
					<dim>1</dim>
					<dim>1</dim>
					<dim>1</dim>
				</port>
			</output>
		</layer>
		<layer id="32" name="model/expanded_conv_depthwise/depthwise/fq_weights_1" type="FakeQuantize" version="opset1">
			<data levels="255"/>
			<input>
				<port id="0">
					<dim>48</dim>
					<dim>1</dim>
					<dim>3</dim>
					<dim>3</dim>
				</port>
				<port id="1">
					<dim>1</dim>
				</port>
				<port id="2">
					<dim>1</dim>
				</port>
				<port id="3">
					<dim>48</dim>
					<dim>1</dim>
					<dim>1</dim>
					<dim>1</dim>
				</port>
				<port id="4">
					<dim>48</dim>
					<dim>1</dim>
					<dim>1</dim>
					<dim>1</dim>
				</port>
			</input>
			<output>
				<port id="5" precision="FP16">
					<dim>48</dim>
					<dim>1</dim>
					<dim>3</dim>
					<dim>3</dim>
				</port>
			</output>
		</layer>
		<layer id="33" name="7227/value7229_const" type="Const" version="opset1">
			<data element_type="i64" offset="2420" shape="5" size="40"/>
			<output>
				<port id="1" precision="I64">
					<dim>5</dim>
				</port>
			</output>
		</layer>
		<layer id="34" name="7227" type="Reshape" version="opset1">
			<data special_zero="True"/>
			<input>
				<port id="0">
					<dim>48</dim>
					<dim>1</dim>
					<dim>3</dim>
					<dim>3</dim>
				</port>
				<port id="1">
					<dim>5</dim>
				</port>
			</input>
			<output>
				<port id="2" precision="FP16">
					<dim>48</dim>
					<dim>1</dim>
					<dim>1</dim>
					<dim>3</dim>
					<dim>3</dim>
				</port>
			</output>
		</layer>
		<layer id="35" name="model/expanded_conv_depthwise/depthwise" type="GroupConvolution" version="opset1">
			<data auto_pad="same_upper" dilations="1,1" output_padding="0,0" pads_begin="0,0" pads_end="0,0" strides="1,1"/>
			<input>
				<port id="0">
					<dim>1</dim>
					<dim>48</dim>
					<dim>384</dim>
					<dim>640</dim>
				</port>
				<port id="1">
					<dim>48</dim>
					<dim>1</dim>
					<dim>1</dim>
					<dim>3</dim>
					<dim>3</dim>
				</port>
			</input>
			<output>
				<port id="2" precision="FP16">
					<dim>1</dim>
					<dim>48</dim>
					<dim>384</dim>
					<dim>640</dim>
				</port>
			</output>
		</layer>
		<layer id="36" name="data_add_1164311648/copy_const383_const" type="Const" version="opset1">
			<data element_type="f16" offset="2460" shape="1,48,1,1" size="96"/>
			<output>
				<port id="1" precision="FP16">
					<dim>1</dim>
					<dim>48</dim>
					<dim>1</dim>
					<dim>1</dim>
				</port>
			</output>
		</layer>
		<layer id="37" name="model/expanded_conv_depthwise_BN/FusedBatchNorm/variance/Fused_Add_" type="Add" version="opset1">
			<input>
				<port id="0">
					<dim>1</dim>
					<dim>48</dim>
					<dim>384</dim>
					<dim>640</dim>
				</port>
				<port id="1">
					<dim>1</dim>
					<dim>48</dim>
					<dim>1</dim>
					<dim>1</dim>
				</port>
			</input>
			<output>
				<port id="2" precision="FP16">
					<dim>1</dim>
					<dim>48</dim>
					<dim>384</dim>
					<dim>640</dim>
				</port>
			</output>
		</layer>
		<layer id="38" name="model/expanded_conv_depthwise_relu/Relu6" type="Clamp" version="opset1">
			<data max="6" min="0"/>
			<input>
				<port id="0">
					<dim>1</dim>
					<dim>48</dim>
					<dim>384</dim>
					<dim>640</dim>
				</port>
			</input>
			<output>
				<port id="1" precision="FP16">
					<dim>1</dim>
					<dim>48</dim>
					<dim>384</dim>
					<dim>640</dim>
				</port>
			</output>
		</layer>
		<layer id="39" name="13141318_const" type="Const" version="opset1">
			<data element_type="f16" offset="1312" shape="" size="2"/>
			<output>
				<port id="1" precision="FP16"/>
			</output>
		</layer>
		<layer id="40" name="13151319_const" type="Const" version="opset1">
			<data element_type="f16" offset="2556" shape="" size="2"/>
			<output>
				<port id="1" precision="FP16"/>
			</output>
		</layer>
		<layer id="41" name="13161320_const" type="Const" version="opset1">
			<data element_type="f16" offset="1312" shape="" size="2"/>
			<output>
				<port id="1" precision="FP16"/>
			</output>
		</layer>
		<layer id="42" name="13171321_const" type="Const" version="opset1">
			<data element_type="f16" offset="2556" shape="" size="2"/>
			<output>
				<port id="1" precision="FP16"/>
			</output>
		</layer>
		<layer id="43" name="model/expanded_conv_project/Conv2D/fq_input_0" type="FakeQuantize" version="opset1">
			<data levels="256"/>
			<input>
				<port id="0">
					<dim>1</dim>
					<dim>48</dim>
					<dim>384</dim>
					<dim>640</dim>
				</port>
				<port id="1"/>
				<port id="2"/>
				<port id="3"/>
				<port id="4"/>
			</input>
			<output>
				<port id="5" precision="FP16">
					<dim>1</dim>
					<dim>48</dim>
					<dim>384</dim>
					<dim>640</dim>
				</port>
			</output>
		</layer>
		<layer id="44" name="model/expanded_conv_project/Conv2D/fq_weights_1/Convert_to_float/Cast_06456_const" type="Const" version="opset1">
			<data element_type="u8" offset="2558" shape="24,48,1,1" size="1152"/>
			<output>
				<port id="1" precision="U8">
					<dim>24</dim>
					<dim>48</dim>
					<dim>1</dim>
					<dim>1</dim>
				</port>
			</output>
		</layer>
		<layer id="45" name="model/expanded_conv_project/Conv2D/fq_weights_1/Convert_to_float" type="Convert" version="opset1">
			<data destination_type="f16"/>
			<input>
				<port id="0">
					<dim>24</dim>
					<dim>48</dim>
					<dim>1</dim>
					<dim>1</dim>
				</port>
			</input>
			<output>
				<port id="1" precision="FP16">
					<dim>24</dim>
					<dim>48</dim>
					<dim>1</dim>
					<dim>1</dim>
				</port>
			</output>
		</layer>
		<layer id="46" name="model/expanded_conv_project/Conv2D/fq_weights_1/Copy/out_low5218_const" type="Const" version="opset1">
			<data element_type="f16" offset="1312" shape="1" size="2"/>
			<output>
				<port id="1" precision="FP16">
					<dim>1</dim>
				</port>
			</output>
		</layer>
		<layer id="47" name="model/expanded_conv_project/Conv2D/fq_weights_1/Copy/out_high5219_const" type="Const" version="opset1">
			<data element_type="f16" offset="1314" shape="1" size="2"/>
			<output>
				<port id="1" precision="FP16">
					<dim>1</dim>
				</port>
			</output>
		</layer>
		<layer id="48" name="13261330_const" type="Const" version="opset1">
			<data element_type="f16" offset="3710" shape="24,1,1,1" size="48"/>
			<output>
				<port id="1" precision="FP16">
					<dim>24</dim>
					<dim>1</dim>
					<dim>1</dim>
					<dim>1</dim>
				</port>
			</output>
		</layer>
		<layer id="49" name="13271331_const" type="Const" version="opset1">
			<data element_type="f16" offset="3758" shape="24,1,1,1" size="48"/>
			<output>
				<port id="1" precision="FP16">
					<dim>24</dim>
					<dim>1</dim>
					<dim>1</dim>
					<dim>1</dim>
				</port>
			</output>
		</layer>
		<layer id="50" name="model/expanded_conv_project/Conv2D/fq_weights_1" type="FakeQuantize" version="opset1">
			<data levels="255"/>
			<input>
				<port id="0">
					<dim>24</dim>
					<dim>48</dim>
					<dim>1</dim>
					<dim>1</dim>
				</port>
				<port id="1">
					<dim>1</dim>
				</port>
				<port id="2">
					<dim>1</dim>
				</port>
				<port id="3">
					<dim>24</dim>
					<dim>1</dim>
					<dim>1</dim>
					<dim>1</dim>
				</port>
				<port id="4">
					<dim>24</dim>
					<dim>1</dim>
					<dim>1</dim>
					<dim>1</dim>
				</port>
			</input>
			<output>
				<port id="5" precision="FP16">
					<dim>24</dim>
					<dim>48</dim>
					<dim>1</dim>
					<dim>1</dim>
				</port>
			</output>
		</layer>
		<layer id="51" name="model/expanded_conv_project/Conv2D" type="Convolution" version="opset1">
			<data auto_pad="same_upper" dilations="1,1" output_padding="0,0" pads_begin="0,0" pads_end="0,0" strides="1,1"/>
			<input>
				<port id="0">
					<dim>1</dim>
					<dim>48</dim>
					<dim>384</dim>
					<dim>640</dim>
				</port>
				<port id="1">
					<dim>24</dim>
					<dim>48</dim>
					<dim>1</dim>
					<dim>1</dim>
				</port>
			</input>
			<output>
				<port id="2" precision="FP16">
					<dim>1</dim>
					<dim>24</dim>
					<dim>384</dim>
					<dim>640</dim>
				</port>
			</output>
		</layer>
		<layer id="52" name="data_add_1165111656/copy_const388_const" type="Const" version="opset1">
			<data element_type="f16" offset="3806" shape="1,24,1,1" size="48"/>
			<output>
				<port id="1" precision="FP16">
					<dim>1</dim>
					<dim>24</dim>
					<dim>1</dim>
					<dim>1</dim>
				</port>
			</output>
		</layer>
		<layer id="53" name="model/expanded_conv_project_BN/FusedBatchNorm/variance/Fused_Add_" type="Add" version="opset1">
			<input>
				<port id="0">
					<dim>1</dim>
					<dim>24</dim>
					<dim>384</dim>
					<dim>640</dim>
				</port>
				<port id="1">
					<dim>1</dim>
					<dim>24</dim>
					<dim>1</dim>
					<dim>1</dim>
				</port>
			</input>
			<output>
				<port id="2" precision="FP16">
					<dim>1</dim>
					<dim>24</dim>
					<dim>384</dim>
					<dim>640</dim>
				</port>
			</output>
		</layer>
		<layer id="54" name="26042608_const" type="Const" version="opset1">
			<data element_type="f16" offset="3854" shape="" size="2"/>
			<output>
				<port id="1" precision="FP16"/>
			</output>
		</layer>
		<layer id="55" name="26052609_const" type="Const" version="opset1">
			<data element_type="f16" offset="3856" shape="" size="2"/>
			<output>
				<port id="1" precision="FP16"/>
			</output>
		</layer>
		<layer id="56" name="26062610_const" type="Const" version="opset1">
			<data element_type="f16" offset="3854" shape="" size="2"/>
			<output>
				<port id="1" precision="FP16"/>
			</output>
		</layer>
		<layer id="57" name="26072611_const" type="Const" version="opset1">
			<data element_type="f16" offset="3856" shape="" size="2"/>
			<output>
				<port id="1" precision="FP16"/>
			</output>
		</layer>
		<layer id="58" name="model/block_1_expand/Conv2D/fq_input_0" type="FakeQuantize" version="opset1">
			<data levels="256"/>
			<input>
				<port id="0">
					<dim>1</dim>
					<dim>24</dim>
					<dim>384</dim>
					<dim>640</dim>
				</port>
				<port id="1"/>
				<port id="2"/>
				<port id="3"/>
				<port id="4"/>
			</input>
			<output>
				<port id="5" precision="FP16">
					<dim>1</dim>
					<dim>24</dim>
					<dim>384</dim>
					<dim>640</dim>
				</port>
			</output>
		</layer>
		<layer id="59" name="model/block_1_expand/Conv2D/fq_weights_1/Convert_to_float/Cast_06380_const" type="Const" version="opset1">
			<data element_type="u8" offset="3858" shape="144,24,1,1" size="3456"/>
			<output>
				<port id="1" precision="U8">
					<dim>144</dim>
					<dim>24</dim>
					<dim>1</dim>
					<dim>1</dim>
				</port>
			</output>
		</layer>
		<layer id="60" name="model/block_1_expand/Conv2D/fq_weights_1/Convert_to_float" type="Convert" version="opset1">
			<data destination_type="f16"/>
			<input>
				<port id="0">
					<dim>144</dim>
					<dim>24</dim>
					<dim>1</dim>
					<dim>1</dim>
				</port>
			</input>
			<output>
				<port id="1" precision="FP16">
					<dim>144</dim>
					<dim>24</dim>
					<dim>1</dim>
					<dim>1</dim>
				</port>
			</output>
		</layer>
		<layer id="61" name="model/block_1_expand/Conv2D/fq_weights_1/Copy/out_low5338_const" type="Const" version="opset1">
			<data element_type="f16" offset="1312" shape="1" size="2"/>
			<output>
				<port id="1" precision="FP16">
					<dim>1</dim>
				</port>
			</output>
		</layer>
		<layer id="62" name="model/block_1_expand/Conv2D/fq_weights_1/Copy/out_high5339_const" type="Const" version="opset1">
			<data element_type="f16" offset="1314" shape="1" size="2"/>
			<output>
				<port id="1" precision="FP16">
					<dim>1</dim>
				</port>
			</output>
		</layer>
		<layer id="63" name="26162620_const" type="Const" version="opset1">
			<data element_type="f16" offset="7314" shape="144,1,1,1" size="288"/>
			<output>
				<port id="1" precision="FP16">
					<dim>144</dim>
					<dim>1</dim>
					<dim>1</dim>
					<dim>1</dim>
				</port>
			</output>
		</layer>
		<layer id="64" name="26172621_const" type="Const" version="opset1">
			<data element_type="f16" offset="7602" shape="144,1,1,1" size="288"/>
			<output>
				<port id="1" precision="FP16">
					<dim>144</dim>
					<dim>1</dim>
					<dim>1</dim>
					<dim>1</dim>
				</port>
			</output>
		</layer>
		<layer id="65" name="model/block_1_expand/Conv2D/fq_weights_1" type="FakeQuantize" version="opset1">
			<data levels="255"/>
			<input>
				<port id="0">
					<dim>144</dim>
					<dim>24</dim>
					<dim>1</dim>
					<dim>1</dim>
				</port>
				<port id="1">
					<dim>1</dim>
				</port>
				<port id="2">
					<dim>1</dim>
				</port>
				<port id="3">
					<dim>144</dim>
					<dim>1</dim>
					<dim>1</dim>
					<dim>1</dim>
				</port>
				<port id="4">
					<dim>144</dim>
					<dim>1</dim>
					<dim>1</dim>
					<dim>1</dim>
				</port>
			</input>
			<output>
				<port id="5" precision="FP16">
					<dim>144</dim>
					<dim>24</dim>
					<dim>1</dim>
					<dim>1</dim>
				</port>
			</output>
		</layer>
		<layer id="66" name="model/block_1_expand/Conv2D" type="Convolution" version="opset1">
			<data auto_pad="same_upper" dilations="1,1" output_padding="0,0" pads_begin="0,0" pads_end="0,0" strides="1,1"/>
			<input>
				<port id="0">
					<dim>1</dim>
					<dim>24</dim>
					<dim>384</dim>
					<dim>640</dim>
				</port>
				<port id="1">
					<dim>144</dim>
					<dim>24</dim>
					<dim>1</dim>
					<dim>1</dim>
				</port>
			</input>
			<output>
				<port id="2" precision="FP16">
					<dim>1</dim>
					<dim>144</dim>
					<dim>384</dim>
					<dim>640</dim>
				</port>
			</output>
		</layer>
		<layer id="67" name="data_add_1165911664/copy_const392_const" type="Const" version="opset1">
			<data element_type="f16" offset="7890" shape="1,144,1,1" size="288"/>
			<output>
				<port id="1" precision="FP16">
					<dim>1</dim>
					<dim>144</dim>
					<dim>1</dim>
					<dim>1</dim>
				</port>
			</output>
		</layer>
		<layer id="68" name="model/block_1_expand_BN/FusedBatchNorm/variance/Fused_Add_" type="Add" version="opset1">
			<input>
				<port id="0">
					<dim>1</dim>
					<dim>144</dim>
					<dim>384</dim>
					<dim>640</dim>
				</port>
				<port id="1">
					<dim>1</dim>
					<dim>144</dim>
					<dim>1</dim>
					<dim>1</dim>
				</port>
			</input>
			<output>
				<port id="2" precision="FP16">
					<dim>1</dim>
					<dim>144</dim>
					<dim>384</dim>
					<dim>640</dim>
				</port>
			</output>
		</layer>
		<layer id="69" name="model/block_1_expand_relu/Relu6" type="Clamp" version="opset1">
			<data max="6" min="0"/>
			<input>
				<port id="0">
					<dim>1</dim>
					<dim>144</dim>
					<dim>384</dim>
					<dim>640</dim>
				</port>
			</input>
			<output>
				<port id="1" precision="FP16">
					<dim>1</dim>
					<dim>144</dim>
					<dim>384</dim>
					<dim>640</dim>
				</port>
			</output>
		</layer>
		<layer id="70" name="24742478_const" type="Const" version="opset1">
			<data element_type="f16" offset="8178" shape="1,144,1,1" size="288"/>
			<output>
				<port id="1" precision="FP16">
					<dim>1</dim>
					<dim>144</dim>
					<dim>1</dim>
					<dim>1</dim>
				</port>
			</output>
		</layer>
		<layer id="71" name="24752479_const" type="Const" version="opset1">
			<data element_type="f16" offset="8466" shape="1,144,1,1" size="288"/>
			<output>
				<port id="1" precision="FP16">
					<dim>1</dim>
					<dim>144</dim>
					<dim>1</dim>
					<dim>1</dim>
				</port>
			</output>
		</layer>
		<layer id="72" name="24762480_const" type="Const" version="opset1">
			<data element_type="f16" offset="8178" shape="1,144,1,1" size="288"/>
			<output>
				<port id="1" precision="FP16">
					<dim>1</dim>
					<dim>144</dim>
					<dim>1</dim>
					<dim>1</dim>
				</port>
			</output>
		</layer>
		<layer id="73" name="24772481_const" type="Const" version="opset1">
			<data element_type="f16" offset="8466" shape="1,144,1,1" size="288"/>
			<output>
				<port id="1" precision="FP16">
					<dim>1</dim>
					<dim>144</dim>
					<dim>1</dim>
					<dim>1</dim>
				</port>
			</output>
		</layer>
		<layer id="74" name="model/block_1_depthwise/depthwise/fq_input_0" type="FakeQuantize" version="opset1">
			<data levels="256"/>
			<input>
				<port id="0">
					<dim>1</dim>
					<dim>144</dim>
					<dim>384</dim>
					<dim>640</dim>
				</port>
				<port id="1">
					<dim>1</dim>
					<dim>144</dim>
					<dim>1</dim>
					<dim>1</dim>
				</port>
				<port id="2">
					<dim>1</dim>
					<dim>144</dim>
					<dim>1</dim>
					<dim>1</dim>
				</port>
				<port id="3">
					<dim>1</dim>
					<dim>144</dim>
					<dim>1</dim>
					<dim>1</dim>
				</port>
				<port id="4">
					<dim>1</dim>
					<dim>144</dim>
					<dim>1</dim>
					<dim>1</dim>
				</port>
			</input>
			<output>
				<port id="5" precision="FP16">
					<dim>1</dim>
					<dim>144</dim>
					<dim>384</dim>
					<dim>640</dim>
				</port>
			</output>
		</layer>
		<layer id="75" name="model/block_1_depthwise/depthwise/fq_weights_1/Convert_to_float/Cast_06376_const" type="Const" version="opset1">
			<data element_type="u8" offset="8754" shape="144,1,3,3" size="1296"/>
			<output>
				<port id="1" precision="U8">
					<dim>144</dim>
					<dim>1</dim>
					<dim>3</dim>
					<dim>3</dim>
				</port>
			</output>
		</layer>
		<layer id="76" name="model/block_1_depthwise/depthwise/fq_weights_1/Convert_to_float" type="Convert" version="opset1">
			<data destination_type="f16"/>
			<input>
				<port id="0">
					<dim>144</dim>
					<dim>1</dim>
					<dim>3</dim>
					<dim>3</dim>
				</port>
			</input>
			<output>
				<port id="1" precision="FP16">
					<dim>144</dim>
					<dim>1</dim>
					<dim>3</dim>
					<dim>3</dim>
				</port>
			</output>
		</layer>
		<layer id="77" name="model/block_1_depthwise/depthwise/fq_weights_1/Copy/out_low5466_const" type="Const" version="opset1">
			<data element_type="f16" offset="1312" shape="1" size="2"/>
			<output>
				<port id="1" precision="FP16">
					<dim>1</dim>
				</port>
			</output>
		</layer>
		<layer id="78" name="model/block_1_depthwise/depthwise/fq_weights_1/Copy/out_high5467_const" type="Const" version="opset1">
			<data element_type="f16" offset="1314" shape="1" size="2"/>
			<output>
				<port id="1" precision="FP16">
					<dim>1</dim>
				</port>
			</output>
		</layer>
		<layer id="79" name="24862490_const" type="Const" version="opset1">
			<data element_type="f16" offset="10050" shape="144,1,1,1" size="288"/>
			<output>
				<port id="1" precision="FP16">
					<dim>144</dim>
					<dim>1</dim>
					<dim>1</dim>
					<dim>1</dim>
				</port>
			</output>
		</layer>
		<layer id="80" name="24872491_const" type="Const" version="opset1">
			<data element_type="f16" offset="10338" shape="144,1,1,1" size="288"/>
			<output>
				<port id="1" precision="FP16">
					<dim>144</dim>
					<dim>1</dim>
					<dim>1</dim>
					<dim>1</dim>
				</port>
			</output>
		</layer>
		<layer id="81" name="model/block_1_depthwise/depthwise/fq_weights_1" type="FakeQuantize" version="opset1">
			<data levels="255"/>
			<input>
				<port id="0">
					<dim>144</dim>
					<dim>1</dim>
					<dim>3</dim>
					<dim>3</dim>
				</port>
				<port id="1">
					<dim>1</dim>
				</port>
				<port id="2">
					<dim>1</dim>
				</port>
				<port id="3">
					<dim>144</dim>
					<dim>1</dim>
					<dim>1</dim>
					<dim>1</dim>
				</port>
				<port id="4">
					<dim>144</dim>
					<dim>1</dim>
					<dim>1</dim>
					<dim>1</dim>
				</port>
			</input>
			<output>
				<port id="5" precision="FP16">
					<dim>144</dim>
					<dim>1</dim>
					<dim>3</dim>
					<dim>3</dim>
				</port>
			</output>
		</layer>
		<layer id="82" name="7275/value7277_const" type="Const" version="opset1">
			<data element_type="i64" offset="10626" shape="5" size="40"/>
			<output>
				<port id="1" precision="I64">
					<dim>5</dim>
				</port>
			</output>
		</layer>
		<layer id="83" name="7275" type="Reshape" version="opset1">
			<data special_zero="True"/>
			<input>
				<port id="0">
					<dim>144</dim>
					<dim>1</dim>
					<dim>3</dim>
					<dim>3</dim>
				</port>
				<port id="1">
					<dim>5</dim>
				</port>
			</input>
			<output>
				<port id="2" precision="FP16">
					<dim>144</dim>
					<dim>1</dim>
					<dim>1</dim>
					<dim>3</dim>
					<dim>3</dim>
				</port>
			</output>
		</layer>
		<layer id="84" name="model/block_1_depthwise/depthwise" type="GroupConvolution" version="opset1">
			<data dilations="1,1" output_padding="0,0" pads_begin="0,0" pads_end="1,1" strides="2,2"/>
			<input>
				<port id="0">
					<dim>1</dim>
					<dim>144</dim>
					<dim>384</dim>
					<dim>640</dim>
				</port>
				<port id="1">
					<dim>144</dim>
					<dim>1</dim>
					<dim>1</dim>
					<dim>3</dim>
					<dim>3</dim>
				</port>
			</input>
			<output>
				<port id="2" precision="FP16">
					<dim>1</dim>
					<dim>144</dim>
					<dim>192</dim>
					<dim>320</dim>
				</port>
			</output>
		</layer>
		<layer id="85" name="data_add_1166711672/copy_const397_const" type="Const" version="opset1">
			<data element_type="f16" offset="10666" shape="1,144,1,1" size="288"/>
			<output>
				<port id="1" precision="FP16">
					<dim>1</dim>
					<dim>144</dim>
					<dim>1</dim>
					<dim>1</dim>
				</port>
			</output>
		</layer>
		<layer id="86" name="model/block_1_depthwise_BN/FusedBatchNorm/variance/Fused_Add_" type="Add" version="opset1">
			<input>
				<port id="0">
					<dim>1</dim>
					<dim>144</dim>
					<dim>192</dim>
					<dim>320</dim>
				</port>
				<port id="1">
					<dim>1</dim>
					<dim>144</dim>
					<dim>1</dim>
					<dim>1</dim>
				</port>
			</input>
			<output>
				<port id="2" precision="FP16">
					<dim>1</dim>
					<dim>144</dim>
					<dim>192</dim>
					<dim>320</dim>
				</port>
			</output>
		</layer>
		<layer id="87" name="model/block_1_depthwise_relu/Relu6" type="Clamp" version="opset1">
			<data max="6" min="0"/>
			<input>
				<port id="0">
					<dim>1</dim>
					<dim>144</dim>
					<dim>192</dim>
					<dim>320</dim>
				</port>
			</input>
			<output>
				<port id="1" precision="FP16">
					<dim>1</dim>
					<dim>144</dim>
					<dim>192</dim>
					<dim>320</dim>
				</port>
			</output>
		</layer>
		<layer id="88" name="12341238_const" type="Const" version="opset1">
			<data element_type="f16" offset="1312" shape="" size="2"/>
			<output>
				<port id="1" precision="FP16"/>
			</output>
		</layer>
		<layer id="89" name="12351239_const" type="Const" version="opset1">
			<data element_type="f16" offset="2556" shape="" size="2"/>
			<output>
				<port id="1" precision="FP16"/>
			</output>
		</layer>
		<layer id="90" name="12361240_const" type="Const" version="opset1">
			<data element_type="f16" offset="1312" shape="" size="2"/>
			<output>
				<port id="1" precision="FP16"/>
			</output>
		</layer>
		<layer id="91" name="12371241_const" type="Const" version="opset1">
			<data element_type="f16" offset="2556" shape="" size="2"/>
			<output>
				<port id="1" precision="FP16"/>
			</output>
		</layer>
		<layer id="92" name="model/block_1_project/Conv2D/fq_input_0" type="FakeQuantize" version="opset1">
			<data levels="256"/>
			<input>
				<port id="0">
					<dim>1</dim>
					<dim>144</dim>
					<dim>192</dim>
					<dim>320</dim>
				</port>
				<port id="1"/>
				<port id="2"/>
				<port id="3"/>
				<port id="4"/>
			</input>
			<output>
				<port id="5" precision="FP16">
					<dim>1</dim>
					<dim>144</dim>
					<dim>192</dim>
					<dim>320</dim>
				</port>
			</output>
		</layer>
		<layer id="93" name="model/block_1_project/Conv2D/fq_weights_1/Convert_to_float/Cast_06466_const" type="Const" version="opset1">
			<data element_type="u8" offset="10954" shape="32,144,1,1" size="4608"/>
			<output>
				<port id="1" precision="U8">
					<dim>32</dim>
					<dim>144</dim>
					<dim>1</dim>
					<dim>1</dim>
				</port>
			</output>
		</layer>
		<layer id="94" name="model/block_1_project/Conv2D/fq_weights_1/Convert_to_float" type="Convert" version="opset1">
			<data destination_type="f16"/>
			<input>
				<port id="0">
					<dim>32</dim>
					<dim>144</dim>
					<dim>1</dim>
					<dim>1</dim>
				</port>
			</input>
			<output>
				<port id="1" precision="FP16">
					<dim>32</dim>
					<dim>144</dim>
					<dim>1</dim>
					<dim>1</dim>
				</port>
			</output>
		</layer>
		<layer id="95" name="model/block_1_project/Conv2D/fq_weights_1/Copy/out_low5282_const" type="Const" version="opset1">
			<data element_type="f16" offset="1312" shape="1" size="2"/>
			<output>
				<port id="1" precision="FP16">
					<dim>1</dim>
				</port>
			</output>
		</layer>
		<layer id="96" name="model/block_1_project/Conv2D/fq_weights_1/Copy/out_high5283_const" type="Const" version="opset1">
			<data element_type="f16" offset="1314" shape="1" size="2"/>
			<output>
				<port id="1" precision="FP16">
					<dim>1</dim>
				</port>
			</output>
		</layer>
		<layer id="97" name="12461250_const" type="Const" version="opset1">
			<data element_type="f16" offset="15562" shape="32,1,1,1" size="64"/>
			<output>
				<port id="1" precision="FP16">
					<dim>32</dim>
					<dim>1</dim>
					<dim>1</dim>
					<dim>1</dim>
				</port>
			</output>
		</layer>
		<layer id="98" name="12471251_const" type="Const" version="opset1">
			<data element_type="f16" offset="15626" shape="32,1,1,1" size="64"/>
			<output>
				<port id="1" precision="FP16">
					<dim>32</dim>
					<dim>1</dim>
					<dim>1</dim>
					<dim>1</dim>
				</port>
			</output>
		</layer>
		<layer id="99" name="model/block_1_project/Conv2D/fq_weights_1" type="FakeQuantize" version="opset1">
			<data levels="255"/>
			<input>
				<port id="0">
					<dim>32</dim>
					<dim>144</dim>
					<dim>1</dim>
					<dim>1</dim>
				</port>
				<port id="1">
					<dim>1</dim>
				</port>
				<port id="2">
					<dim>1</dim>
				</port>
				<port id="3">
					<dim>32</dim>
					<dim>1</dim>
					<dim>1</dim>
					<dim>1</dim>
				</port>
				<port id="4">
					<dim>32</dim>
					<dim>1</dim>
					<dim>1</dim>
					<dim>1</dim>
				</port>
			</input>
			<output>
				<port id="5" precision="FP16">
					<dim>32</dim>
					<dim>144</dim>
					<dim>1</dim>
					<dim>1</dim>
				</port>
			</output>
		</layer>
		<layer id="100" name="model/block_1_project/Conv2D" type="Convolution" version="opset1">
			<data auto_pad="same_upper" dilations="1,1" output_padding="0,0" pads_begin="0,0" pads_end="0,0" strides="1,1"/>
			<input>
				<port id="0">
					<dim>1</dim>
					<dim>144</dim>
					<dim>192</dim>
					<dim>320</dim>
				</port>
				<port id="1">
					<dim>32</dim>
					<dim>144</dim>
					<dim>1</dim>
					<dim>1</dim>
				</port>
			</input>
			<output>
				<port id="2" precision="FP16">
					<dim>1</dim>
					<dim>32</dim>
					<dim>192</dim>
					<dim>320</dim>
				</port>
			</output>
		</layer>
		<layer id="101" name="data_add_1167511680/copy_const402_const" type="Const" version="opset1">
			<data element_type="f16" offset="15690" shape="1,32,1,1" size="64"/>
			<output>
				<port id="1" precision="FP16">
					<dim>1</dim>
					<dim>32</dim>
					<dim>1</dim>
					<dim>1</dim>
				</port>
			</output>
		</layer>
		<layer id="102" name="model/block_1_project_BN/FusedBatchNorm/variance/Fused_Add_" type="Add" version="opset1">
			<input>
				<port id="0">
					<dim>1</dim>
					<dim>32</dim>
					<dim>192</dim>
					<dim>320</dim>
				</port>
				<port id="1">
					<dim>1</dim>
					<dim>32</dim>
					<dim>1</dim>
					<dim>1</dim>
				</port>
			</input>
			<output>
				<port id="2" precision="FP16">
					<dim>1</dim>
					<dim>32</dim>
					<dim>192</dim>
					<dim>320</dim>
				</port>
			</output>
		</layer>
		<layer id="103" name="20342038_const" type="Const" version="opset1">
			<data element_type="f16" offset="15754" shape="" size="2"/>
			<output>
				<port id="1" precision="FP16"/>
			</output>
		</layer>
		<layer id="104" name="20352039_const" type="Const" version="opset1">
			<data element_type="f16" offset="15756" shape="" size="2"/>
			<output>
				<port id="1" precision="FP16"/>
			</output>
		</layer>
		<layer id="105" name="20362040_const" type="Const" version="opset1">
			<data element_type="f16" offset="15754" shape="" size="2"/>
			<output>
				<port id="1" precision="FP16"/>
			</output>
		</layer>
		<layer id="106" name="20372041_const" type="Const" version="opset1">
			<data element_type="f16" offset="15756" shape="" size="2"/>
			<output>
				<port id="1" precision="FP16"/>
			</output>
		</layer>
		<layer id="107" name="model/block_2_add/add/fq_input_0" type="FakeQuantize" version="opset1">
			<data levels="256"/>
			<input>
				<port id="0">
					<dim>1</dim>
					<dim>32</dim>
					<dim>192</dim>
					<dim>320</dim>
				</port>
				<port id="1"/>
				<port id="2"/>
				<port id="3"/>
				<port id="4"/>
			</input>
			<output>
				<port id="5" precision="FP16">
					<dim>1</dim>
					<dim>32</dim>
					<dim>192</dim>
					<dim>320</dim>
				</port>
			</output>
		</layer>
		<layer id="108" name="model/block_2_expand/Conv2D/fq_weights_1/Convert_to_float/Cast_06364_const" type="Const" version="opset1">
			<data element_type="u8" offset="15758" shape="192,32,1,1" size="6144"/>
			<output>
				<port id="1" precision="U8">
					<dim>192</dim>
					<dim>32</dim>
					<dim>1</dim>
					<dim>1</dim>
				</port>
			</output>
		</layer>
		<layer id="109" name="model/block_2_expand/Conv2D/fq_weights_1/Convert_to_float" type="Convert" version="opset1">
			<data destination_type="f16"/>
			<input>
				<port id="0">
					<dim>192</dim>
					<dim>32</dim>
					<dim>1</dim>
					<dim>1</dim>
				</port>
			</input>
			<output>
				<port id="1" precision="FP16">
					<dim>192</dim>
					<dim>32</dim>
					<dim>1</dim>
					<dim>1</dim>
				</port>
			</output>
		</layer>
		<layer id="110" name="model/block_2_expand/Conv2D/fq_weights_1/Copy/out_low5418_const" type="Const" version="opset1">
			<data element_type="f16" offset="1312" shape="1" size="2"/>
			<output>
				<port id="1" precision="FP16">
					<dim>1</dim>
				</port>
			</output>
		</layer>
		<layer id="111" name="model/block_2_expand/Conv2D/fq_weights_1/Copy/out_high5419_const" type="Const" version="opset1">
			<data element_type="f16" offset="1314" shape="1" size="2"/>
			<output>
				<port id="1" precision="FP16">
					<dim>1</dim>
				</port>
			</output>
		</layer>
		<layer id="112" name="13061310_const" type="Const" version="opset1">
			<data element_type="f16" offset="21902" shape="192,1,1,1" size="384"/>
			<output>
				<port id="1" precision="FP16">
					<dim>192</dim>
					<dim>1</dim>
					<dim>1</dim>
					<dim>1</dim>
				</port>
			</output>
		</layer>
		<layer id="113" name="13071311_const" type="Const" version="opset1">
			<data element_type="f16" offset="22286" shape="192,1,1,1" size="384"/>
			<output>
				<port id="1" precision="FP16">
					<dim>192</dim>
					<dim>1</dim>
					<dim>1</dim>
					<dim>1</dim>
				</port>
			</output>
		</layer>
		<layer id="114" name="model/block_2_expand/Conv2D/fq_weights_1" type="FakeQuantize" version="opset1">
			<data levels="255"/>
			<input>
				<port id="0">
					<dim>192</dim>
					<dim>32</dim>
					<dim>1</dim>
					<dim>1</dim>
				</port>
				<port id="1">
					<dim>1</dim>
				</port>
				<port id="2">
					<dim>1</dim>
				</port>
				<port id="3">
					<dim>192</dim>
					<dim>1</dim>
					<dim>1</dim>
					<dim>1</dim>
				</port>
				<port id="4">
					<dim>192</dim>
					<dim>1</dim>
					<dim>1</dim>
					<dim>1</dim>
				</port>
			</input>
			<output>
				<port id="5" precision="FP16">
					<dim>192</dim>
					<dim>32</dim>
					<dim>1</dim>
					<dim>1</dim>
				</port>
			</output>
		</layer>
		<layer id="115" name="model/block_2_expand/Conv2D" type="Convolution" version="opset1">
			<data auto_pad="same_upper" dilations="1,1" output_padding="0,0" pads_begin="0,0" pads_end="0,0" strides="1,1"/>
			<input>
				<port id="0">
					<dim>1</dim>
					<dim>32</dim>
					<dim>192</dim>
					<dim>320</dim>
				</port>
				<port id="1">
					<dim>192</dim>
					<dim>32</dim>
					<dim>1</dim>
					<dim>1</dim>
				</port>
			</input>
			<output>
				<port id="2" precision="FP16">
					<dim>1</dim>
					<dim>192</dim>
					<dim>192</dim>
					<dim>320</dim>
				</port>
			</output>
		</layer>
		<layer id="116" name="data_add_1168311688/copy_const406_const" type="Const" version="opset1">
			<data element_type="f16" offset="22670" shape="1,192,1,1" size="384"/>
			<output>
				<port id="1" precision="FP16">
					<dim>1</dim>
					<dim>192</dim>
					<dim>1</dim>
					<dim>1</dim>
				</port>
			</output>
		</layer>
		<layer id="117" name="model/block_2_expand_BN/FusedBatchNorm/variance/Fused_Add_" type="Add" version="opset1">
			<input>
				<port id="0">
					<dim>1</dim>
					<dim>192</dim>
					<dim>192</dim>
					<dim>320</dim>
				</port>
				<port id="1">
					<dim>1</dim>
					<dim>192</dim>
					<dim>1</dim>
					<dim>1</dim>
				</port>
			</input>
			<output>
				<port id="2" precision="FP16">
					<dim>1</dim>
					<dim>192</dim>
					<dim>192</dim>
					<dim>320</dim>
				</port>
			</output>
		</layer>
		<layer id="118" name="model/block_2_expand_relu/Relu6" type="Clamp" version="opset1">
			<data max="6" min="0"/>
			<input>
				<port id="0">
					<dim>1</dim>
					<dim>192</dim>
					<dim>192</dim>
					<dim>320</dim>
				</port>
			</input>
			<output>
				<port id="1" precision="FP16">
					<dim>1</dim>
					<dim>192</dim>
					<dim>192</dim>
					<dim>320</dim>
				</port>
			</output>
		</layer>
		<layer id="119" name="25642568_const" type="Const" version="opset1">
			<data element_type="f16" offset="23054" shape="1,192,1,1" size="384"/>
			<output>
				<port id="1" precision="FP16">
					<dim>1</dim>
					<dim>192</dim>
					<dim>1</dim>
					<dim>1</dim>
				</port>
			</output>
		</layer>
		<layer id="120" name="25652569_const" type="Const" version="opset1">
			<data element_type="f16" offset="23438" shape="1,192,1,1" size="384"/>
			<output>
				<port id="1" precision="FP16">
					<dim>1</dim>
					<dim>192</dim>
					<dim>1</dim>
					<dim>1</dim>
				</port>
			</output>
		</layer>
		<layer id="121" name="25662570_const" type="Const" version="opset1">
			<data element_type="f16" offset="23054" shape="1,192,1,1" size="384"/>
			<output>
				<port id="1" precision="FP16">
					<dim>1</dim>
					<dim>192</dim>
					<dim>1</dim>
					<dim>1</dim>
				</port>
			</output>
		</layer>
		<layer id="122" name="25672571_const" type="Const" version="opset1">
			<data element_type="f16" offset="23438" shape="1,192,1,1" size="384"/>
			<output>
				<port id="1" precision="FP16">
					<dim>1</dim>
					<dim>192</dim>
					<dim>1</dim>
					<dim>1</dim>
				</port>
			</output>
		</layer>
		<layer id="123" name="model/block_2_depthwise/depthwise/fq_input_0" type="FakeQuantize" version="opset1">
			<data levels="256"/>
			<input>
				<port id="0">
					<dim>1</dim>
					<dim>192</dim>
					<dim>192</dim>
					<dim>320</dim>
				</port>
				<port id="1">
					<dim>1</dim>
					<dim>192</dim>
					<dim>1</dim>
					<dim>1</dim>
				</port>
				<port id="2">
					<dim>1</dim>
					<dim>192</dim>
					<dim>1</dim>
					<dim>1</dim>
				</port>
				<port id="3">
					<dim>1</dim>
					<dim>192</dim>
					<dim>1</dim>
					<dim>1</dim>
				</port>
				<port id="4">
					<dim>1</dim>
					<dim>192</dim>
					<dim>1</dim>
					<dim>1</dim>
				</port>
			</input>
			<output>
				<port id="5" precision="FP16">
					<dim>1</dim>
					<dim>192</dim>
					<dim>192</dim>
					<dim>320</dim>
				</port>
			</output>
		</layer>
		<layer id="124" name="model/block_2_depthwise/depthwise/fq_weights_1/Convert_to_float/Cast_06412_const" type="Const" version="opset1">
			<data element_type="u8" offset="23822" shape="192,1,3,3" size="1728"/>
			<output>
				<port id="1" precision="U8">
					<dim>192</dim>
					<dim>1</dim>
					<dim>3</dim>
					<dim>3</dim>
				</port>
			</output>
		</layer>
		<layer id="125" name="model/block_2_depthwise/depthwise/fq_weights_1/Convert_to_float" type="Convert" version="opset1">
			<data destination_type="f16"/>
			<input>
				<port id="0">
					<dim>192</dim>
					<dim>1</dim>
					<dim>3</dim>
					<dim>3</dim>
				</port>
			</input>
			<output>
				<port id="1" precision="FP16">
					<dim>192</dim>
					<dim>1</dim>
					<dim>3</dim>
					<dim>3</dim>
				</port>
			</output>
		</layer>
		<layer id="126" name="model/block_2_depthwise/depthwise/fq_weights_1/Copy/out_low5362_const" type="Const" version="opset1">
			<data element_type="f16" offset="1312" shape="1" size="2"/>
			<output>
				<port id="1" precision="FP16">
					<dim>1</dim>
				</port>
			</output>
		</layer>
		<layer id="127" name="model/block_2_depthwise/depthwise/fq_weights_1/Copy/out_high5363_const" type="Const" version="opset1">
			<data element_type="f16" offset="1314" shape="1" size="2"/>
			<output>
				<port id="1" precision="FP16">
					<dim>1</dim>
				</port>
			</output>
		</layer>
		<layer id="128" name="25762580_const" type="Const" version="opset1">
			<data element_type="f16" offset="25550" shape="192,1,1,1" size="384"/>
			<output>
				<port id="1" precision="FP16">
					<dim>192</dim>
					<dim>1</dim>
					<dim>1</dim>
					<dim>1</dim>
				</port>
			</output>
		</layer>
		<layer id="129" name="25772581_const" type="Const" version="opset1">
			<data element_type="f16" offset="25934" shape="192,1,1,1" size="384"/>
			<output>
				<port id="1" precision="FP16">
					<dim>192</dim>
					<dim>1</dim>
					<dim>1</dim>
					<dim>1</dim>
				</port>
			</output>
		</layer>
		<layer id="130" name="model/block_2_depthwise/depthwise/fq_weights_1" type="FakeQuantize" version="opset1">
			<data levels="255"/>
			<input>
				<port id="0">
					<dim>192</dim>
					<dim>1</dim>
					<dim>3</dim>
					<dim>3</dim>
				</port>
				<port id="1">
					<dim>1</dim>
				</port>
				<port id="2">
					<dim>1</dim>
				</port>
				<port id="3">
					<dim>192</dim>
					<dim>1</dim>
					<dim>1</dim>
					<dim>1</dim>
				</port>
				<port id="4">
					<dim>192</dim>
					<dim>1</dim>
					<dim>1</dim>
					<dim>1</dim>
				</port>
			</input>
			<output>
				<port id="5" precision="FP16">
					<dim>192</dim>
					<dim>1</dim>
					<dim>3</dim>
					<dim>3</dim>
				</port>
			</output>
		</layer>
		<layer id="131" name="7239/value7241_const" type="Const" version="opset1">
			<data element_type="i64" offset="26318" shape="5" size="40"/>
			<output>
				<port id="1" precision="I64">
					<dim>5</dim>
				</port>
			</output>
		</layer>
		<layer id="132" name="7239" type="Reshape" version="opset1">
			<data special_zero="True"/>
			<input>
				<port id="0">
					<dim>192</dim>
					<dim>1</dim>
					<dim>3</dim>
					<dim>3</dim>
				</port>
				<port id="1">
					<dim>5</dim>
				</port>
			</input>
			<output>
				<port id="2" precision="FP16">
					<dim>192</dim>
					<dim>1</dim>
					<dim>1</dim>
					<dim>3</dim>
					<dim>3</dim>
				</port>
			</output>
		</layer>
		<layer id="133" name="model/block_2_depthwise/depthwise" type="GroupConvolution" version="opset1">
			<data auto_pad="same_upper" dilations="1,1" output_padding="0,0" pads_begin="0,0" pads_end="0,0" strides="1,1"/>
			<input>
				<port id="0">
					<dim>1</dim>
					<dim>192</dim>
					<dim>192</dim>
					<dim>320</dim>
				</port>
				<port id="1">
					<dim>192</dim>
					<dim>1</dim>
					<dim>1</dim>
					<dim>3</dim>
					<dim>3</dim>
				</port>
			</input>
			<output>
				<port id="2" precision="FP16">
					<dim>1</dim>
					<dim>192</dim>
					<dim>192</dim>
					<dim>320</dim>
				</port>
			</output>
		</layer>
		<layer id="134" name="data_add_1169111696/copy_const411_const" type="Const" version="opset1">
			<data element_type="f16" offset="26358" shape="1,192,1,1" size="384"/>
			<output>
				<port id="1" precision="FP16">
					<dim>1</dim>
					<dim>192</dim>
					<dim>1</dim>
					<dim>1</dim>
				</port>
			</output>
		</layer>
		<layer id="135" name="model/block_2_depthwise_BN/FusedBatchNorm/variance/Fused_Add_" type="Add" version="opset1">
			<input>
				<port id="0">
					<dim>1</dim>
					<dim>192</dim>
					<dim>192</dim>
					<dim>320</dim>
				</port>
				<port id="1">
					<dim>1</dim>
					<dim>192</dim>
					<dim>1</dim>
					<dim>1</dim>
				</port>
			</input>
			<output>
				<port id="2" precision="FP16">
					<dim>1</dim>
					<dim>192</dim>
					<dim>192</dim>
					<dim>320</dim>
				</port>
			</output>
		</layer>
		<layer id="136" name="model/block_2_depthwise_relu/Relu6" type="Clamp" version="opset1">
			<data max="6" min="0"/>
			<input>
				<port id="0">
					<dim>1</dim>
					<dim>192</dim>
					<dim>192</dim>
					<dim>320</dim>
				</port>
			</input>
			<output>
				<port id="1" precision="FP16">
					<dim>1</dim>
					<dim>192</dim>
					<dim>192</dim>
					<dim>320</dim>
				</port>
			</output>
		</layer>
		<layer id="137" name="26442648_const" type="Const" version="opset1">
			<data element_type="f16" offset="1312" shape="" size="2"/>
			<output>
				<port id="1" precision="FP16"/>
			</output>
		</layer>
		<layer id="138" name="26452649_const" type="Const" version="opset1">
			<data element_type="f16" offset="2556" shape="" size="2"/>
			<output>
				<port id="1" precision="FP16"/>
			</output>
		</layer>
		<layer id="139" name="26462650_const" type="Const" version="opset1">
			<data element_type="f16" offset="1312" shape="" size="2"/>
			<output>
				<port id="1" precision="FP16"/>
			</output>
		</layer>
		<layer id="140" name="26472651_const" type="Const" version="opset1">
			<data element_type="f16" offset="2556" shape="" size="2"/>
			<output>
				<port id="1" precision="FP16"/>
			</output>
		</layer>
		<layer id="141" name="model/block_2_project/Conv2D/fq_input_0" type="FakeQuantize" version="opset1">
			<data levels="256"/>
			<input>
				<port id="0">
					<dim>1</dim>
					<dim>192</dim>
					<dim>192</dim>
					<dim>320</dim>
				</port>
				<port id="1"/>
				<port id="2"/>
				<port id="3"/>
				<port id="4"/>
			</input>
			<output>
				<port id="5" precision="FP16">
					<dim>1</dim>
					<dim>192</dim>
					<dim>192</dim>
					<dim>320</dim>
				</port>
			</output>
		</layer>
		<layer id="142" name="model/block_2_project/Conv2D/fq_weights_1/Convert_to_float/Cast_06322_const" type="Const" version="opset1">
			<data element_type="u8" offset="26742" shape="32,192,1,1" size="6144"/>
			<output>
				<port id="1" precision="U8">
					<dim>32</dim>
					<dim>192</dim>
					<dim>1</dim>
					<dim>1</dim>
				</port>
			</output>
		</layer>
		<layer id="143" name="model/block_2_project/Conv2D/fq_weights_1/Convert_to_float" type="Convert" version="opset1">
			<data destination_type="f16"/>
			<input>
				<port id="0">
					<dim>32</dim>
					<dim>192</dim>
					<dim>1</dim>
					<dim>1</dim>
				</port>
			</input>
			<output>
				<port id="1" precision="FP16">
					<dim>32</dim>
					<dim>192</dim>
					<dim>1</dim>
					<dim>1</dim>
				</port>
			</output>
		</layer>
		<layer id="144" name="model/block_2_project/Conv2D/fq_weights_1/Copy/out_low5274_const" type="Const" version="opset1">
			<data element_type="f16" offset="1312" shape="1" size="2"/>
			<output>
				<port id="1" precision="FP16">
					<dim>1</dim>
				</port>
			</output>
		</layer>
		<layer id="145" name="model/block_2_project/Conv2D/fq_weights_1/Copy/out_high5275_const" type="Const" version="opset1">
			<data element_type="f16" offset="1314" shape="1" size="2"/>
			<output>
				<port id="1" precision="FP16">
					<dim>1</dim>
				</port>
			</output>
		</layer>
		<layer id="146" name="26562660_const" type="Const" version="opset1">
			<data element_type="f16" offset="32886" shape="32,1,1,1" size="64"/>
			<output>
				<port id="1" precision="FP16">
					<dim>32</dim>
					<dim>1</dim>
					<dim>1</dim>
					<dim>1</dim>
				</port>
			</output>
		</layer>
		<layer id="147" name="26572661_const" type="Const" version="opset1">
			<data element_type="f16" offset="32950" shape="32,1,1,1" size="64"/>
			<output>
				<port id="1" precision="FP16">
					<dim>32</dim>
					<dim>1</dim>
					<dim>1</dim>
					<dim>1</dim>
				</port>
			</output>
		</layer>
		<layer id="148" name="model/block_2_project/Conv2D/fq_weights_1" type="FakeQuantize" version="opset1">
			<data levels="255"/>
			<input>
				<port id="0">
					<dim>32</dim>
					<dim>192</dim>
					<dim>1</dim>
					<dim>1</dim>
				</port>
				<port id="1">
					<dim>1</dim>
				</port>
				<port id="2">
					<dim>1</dim>
				</port>
				<port id="3">
					<dim>32</dim>
					<dim>1</dim>
					<dim>1</dim>
					<dim>1</dim>
				</port>
				<port id="4">
					<dim>32</dim>
					<dim>1</dim>
					<dim>1</dim>
					<dim>1</dim>
				</port>
			</input>
			<output>
				<port id="5" precision="FP16">
					<dim>32</dim>
					<dim>192</dim>
					<dim>1</dim>
					<dim>1</dim>
				</port>
			</output>
		</layer>
		<layer id="149" name="model/block_2_project/Conv2D" type="Convolution" version="opset1">
			<data auto_pad="same_upper" dilations="1,1" output_padding="0,0" pads_begin="0,0" pads_end="0,0" strides="1,1"/>
			<input>
				<port id="0">
					<dim>1</dim>
					<dim>192</dim>
					<dim>192</dim>
					<dim>320</dim>
				</port>
				<port id="1">
					<dim>32</dim>
					<dim>192</dim>
					<dim>1</dim>
					<dim>1</dim>
				</port>
			</input>
			<output>
				<port id="2" precision="FP16">
					<dim>1</dim>
					<dim>32</dim>
					<dim>192</dim>
					<dim>320</dim>
				</port>
			</output>
		</layer>
		<layer id="150" name="data_add_1169911704/copy_const416_const" type="Const" version="opset1">
			<data element_type="f16" offset="33014" shape="1,32,1,1" size="64"/>
			<output>
				<port id="1" precision="FP16">
					<dim>1</dim>
					<dim>32</dim>
					<dim>1</dim>
					<dim>1</dim>
				</port>
			</output>
		</layer>
		<layer id="151" name="model/block_2_project_BN/FusedBatchNorm/variance/Fused_Add_" type="Add" version="opset1">
			<input>
				<port id="0">
					<dim>1</dim>
					<dim>32</dim>
					<dim>192</dim>
					<dim>320</dim>
				</port>
				<port id="1">
					<dim>1</dim>
					<dim>32</dim>
					<dim>1</dim>
					<dim>1</dim>
				</port>
			</input>
			<output>
				<port id="2" precision="FP16">
					<dim>1</dim>
					<dim>32</dim>
					<dim>192</dim>
					<dim>320</dim>
				</port>
			</output>
		</layer>
		<layer id="152" name="20442048_const" type="Const" version="opset1">
			<data element_type="f16" offset="33078" shape="" size="2"/>
			<output>
				<port id="1" precision="FP16"/>
			</output>
		</layer>
		<layer id="153" name="20452049_const" type="Const" version="opset1">
			<data element_type="f16" offset="33080" shape="" size="2"/>
			<output>
				<port id="1" precision="FP16"/>
			</output>
		</layer>
		<layer id="154" name="20462050_const" type="Const" version="opset1">
			<data element_type="f16" offset="33078" shape="" size="2"/>
			<output>
				<port id="1" precision="FP16"/>
			</output>
		</layer>
		<layer id="155" name="20472051_const" type="Const" version="opset1">
			<data element_type="f16" offset="33080" shape="" size="2"/>
			<output>
				<port id="1" precision="FP16"/>
			</output>
		</layer>
		<layer id="156" name="model/block_2_add/add/fq_input_1" type="FakeQuantize" version="opset1">
			<data levels="256"/>
			<input>
				<port id="0">
					<dim>1</dim>
					<dim>32</dim>
					<dim>192</dim>
					<dim>320</dim>
				</port>
				<port id="1"/>
				<port id="2"/>
				<port id="3"/>
				<port id="4"/>
			</input>
			<output>
				<port id="5" precision="FP16">
					<dim>1</dim>
					<dim>32</dim>
					<dim>192</dim>
					<dim>320</dim>
				</port>
			</output>
		</layer>
		<layer id="157" name="model/block_2_add/add" type="Add" version="opset1">
			<input>
				<port id="0">
					<dim>1</dim>
					<dim>32</dim>
					<dim>192</dim>
					<dim>320</dim>
				</port>
				<port id="1">
					<dim>1</dim>
					<dim>32</dim>
					<dim>192</dim>
					<dim>320</dim>
				</port>
			</input>
			<output>
				<port id="2" precision="FP16">
					<dim>1</dim>
					<dim>32</dim>
					<dim>192</dim>
					<dim>320</dim>
				</port>
			</output>
		</layer>
		<layer id="158" name="18741878_const" type="Const" version="opset1">
			<data element_type="f16" offset="33082" shape="" size="2"/>
			<output>
				<port id="1" precision="FP16"/>
			</output>
		</layer>
		<layer id="159" name="18751879_const" type="Const" version="opset1">
			<data element_type="f16" offset="33084" shape="" size="2"/>
			<output>
				<port id="1" precision="FP16"/>
			</output>
		</layer>
		<layer id="160" name="18761880_const" type="Const" version="opset1">
			<data element_type="f16" offset="33082" shape="" size="2"/>
			<output>
				<port id="1" precision="FP16"/>
			</output>
		</layer>
		<layer id="161" name="18771881_const" type="Const" version="opset1">
			<data element_type="f16" offset="33084" shape="" size="2"/>
			<output>
				<port id="1" precision="FP16"/>
			</output>
		</layer>
		<layer id="162" name="model/block_3_expand/Conv2D/fq_input_0" type="FakeQuantize" version="opset1">
			<data levels="256"/>
			<input>
				<port id="0">
					<dim>1</dim>
					<dim>32</dim>
					<dim>192</dim>
					<dim>320</dim>
				</port>
				<port id="1"/>
				<port id="2"/>
				<port id="3"/>
				<port id="4"/>
			</input>
			<output>
				<port id="5" precision="FP16">
					<dim>1</dim>
					<dim>32</dim>
					<dim>192</dim>
					<dim>320</dim>
				</port>
			</output>
		</layer>
		<layer id="163" name="model/conv2d_7/Conv2D/fq_weights_1/Convert_to_float/Cast_06444_const" type="Const" version="opset1">
			<data element_type="u8" offset="33086" shape="16,32,1,1" size="512"/>
			<output>
				<port id="1" precision="U8">
					<dim>16</dim>
					<dim>32</dim>
					<dim>1</dim>
					<dim>1</dim>
				</port>
			</output>
		</layer>
		<layer id="164" name="model/conv2d_7/Conv2D/fq_weights_1/Convert_to_float" type="Convert" version="opset1">
			<data destination_type="f16"/>
			<input>
				<port id="0">
					<dim>16</dim>
					<dim>32</dim>
					<dim>1</dim>
					<dim>1</dim>
				</port>
			</input>
			<output>
				<port id="1" precision="FP16">
					<dim>16</dim>
					<dim>32</dim>
					<dim>1</dim>
					<dim>1</dim>
				</port>
			</output>
		</layer>
		<layer id="165" name="model/conv2d_7/Conv2D/fq_weights_1/Copy/out_low5266_const" type="Const" version="opset1">
			<data element_type="f16" offset="1312" shape="1" size="2"/>
			<output>
				<port id="1" precision="FP16">
					<dim>1</dim>
				</port>
			</output>
		</layer>
		<layer id="166" name="model/conv2d_7/Conv2D/fq_weights_1/Copy/out_high5267_const" type="Const" version="opset1">
			<data element_type="f16" offset="1314" shape="1" size="2"/>
			<output>
				<port id="1" precision="FP16">
					<dim>1</dim>
				</port>
			</output>
		</layer>
		<layer id="167" name="16261630_const" type="Const" version="opset1">
			<data element_type="f16" offset="33598" shape="16,1,1,1" size="32"/>
			<output>
				<port id="1" precision="FP16">
					<dim>16</dim>
					<dim>1</dim>
					<dim>1</dim>
					<dim>1</dim>
				</port>
			</output>
		</layer>
		<layer id="168" name="16271631_const" type="Const" version="opset1">
			<data element_type="f16" offset="33630" shape="16,1,1,1" size="32"/>
			<output>
				<port id="1" precision="FP16">
					<dim>16</dim>
					<dim>1</dim>
					<dim>1</dim>
					<dim>1</dim>
				</port>
			</output>
		</layer>
		<layer id="169" name="model/conv2d_7/Conv2D/fq_weights_1" type="FakeQuantize" version="opset1">
			<data levels="255"/>
			<input>
				<port id="0">
					<dim>16</dim>
					<dim>32</dim>
					<dim>1</dim>
					<dim>1</dim>
				</port>
				<port id="1">
					<dim>1</dim>
				</port>
				<port id="2">
					<dim>1</dim>
				</port>
				<port id="3">
					<dim>16</dim>
					<dim>1</dim>
					<dim>1</dim>
					<dim>1</dim>
				</port>
				<port id="4">
					<dim>16</dim>
					<dim>1</dim>
					<dim>1</dim>
					<dim>1</dim>
				</port>
			</input>
			<output>
				<port id="5" precision="FP16">
					<dim>16</dim>
					<dim>32</dim>
					<dim>1</dim>
					<dim>1</dim>
				</port>
			</output>
		</layer>
		<layer id="170" name="model/conv2d_7/Conv2D" type="Convolution" version="opset1">
			<data auto_pad="valid" dilations="1,1" output_padding="0,0" pads_begin="0,0" pads_end="0,0" strides="1,1"/>
			<input>
				<port id="0">
					<dim>1</dim>
					<dim>32</dim>
					<dim>192</dim>
					<dim>320</dim>
				</port>
				<port id="1">
					<dim>16</dim>
					<dim>32</dim>
					<dim>1</dim>
					<dim>1</dim>
				</port>
			</input>
			<output>
				<port id="2" precision="FP16">
					<dim>1</dim>
					<dim>16</dim>
					<dim>192</dim>
					<dim>320</dim>
				</port>
			</output>
		</layer>
		<layer id="171" name="model/conv2d_7/BiasAdd/ReadVariableOp/Output_0/Data_/copy_const421_const" type="Const" version="opset1">
			<data element_type="f16" offset="33662" shape="1,16,1,1" size="32"/>
			<output>
				<port id="1" precision="FP16">
					<dim>1</dim>
					<dim>16</dim>
					<dim>1</dim>
					<dim>1</dim>
				</port>
			</output>
		</layer>
		<layer id="172" name="model/conv2d_7/BiasAdd/Add" type="Add" version="opset1">
			<input>
				<port id="0">
					<dim>1</dim>
					<dim>16</dim>
					<dim>192</dim>
					<dim>320</dim>
				</port>
				<port id="1">
					<dim>1</dim>
					<dim>16</dim>
					<dim>1</dim>
					<dim>1</dim>
				</port>
			</input>
			<output>
				<port id="2" precision="FP16">
					<dim>1</dim>
					<dim>16</dim>
					<dim>192</dim>
					<dim>320</dim>
				</port>
			</output>
		</layer>
		<layer id="173" name="20142018_const" type="Const" version="opset1">
			<data element_type="f16" offset="33694" shape="" size="2"/>
			<output>
				<port id="1" precision="FP16"/>
			</output>
		</layer>
		<layer id="174" name="20152019_const" type="Const" version="opset1">
			<data element_type="f16" offset="33696" shape="" size="2"/>
			<output>
				<port id="1" precision="FP16"/>
			</output>
		</layer>
		<layer id="175" name="20162020_const" type="Const" version="opset1">
			<data element_type="f16" offset="33694" shape="" size="2"/>
			<output>
				<port id="1" precision="FP16"/>
			</output>
		</layer>
		<layer id="176" name="20172021_const" type="Const" version="opset1">
			<data element_type="f16" offset="33696" shape="" size="2"/>
			<output>
				<port id="1" precision="FP16"/>
			</output>
		</layer>
		<layer id="177" name="model/link_logits_/add/fq_input_0" type="FakeQuantize" version="opset1">
			<data levels="256"/>
			<input>
				<port id="0">
					<dim>1</dim>
					<dim>16</dim>
					<dim>192</dim>
					<dim>320</dim>
				</port>
				<port id="1"/>
				<port id="2"/>
				<port id="3"/>
				<port id="4"/>
			</input>
			<output>
				<port id="5" precision="FP16">
					<dim>1</dim>
					<dim>16</dim>
					<dim>192</dim>
					<dim>320</dim>
				</port>
			</output>
		</layer>
		<layer id="178" name="model/block_3_expand/Conv2D/fq_weights_1/Convert_to_float/Cast_06344_const" type="Const" version="opset1">
			<data element_type="u8" offset="33698" shape="192,32,1,1" size="6144"/>
			<output>
				<port id="1" precision="U8">
					<dim>192</dim>
					<dim>32</dim>
					<dim>1</dim>
					<dim>1</dim>
				</port>
			</output>
		</layer>
		<layer id="179" name="model/block_3_expand/Conv2D/fq_weights_1/Convert_to_float" type="Convert" version="opset1">
			<data destination_type="f16"/>
			<input>
				<port id="0">
					<dim>192</dim>
					<dim>32</dim>
					<dim>1</dim>
					<dim>1</dim>
				</port>
			</input>
			<output>
				<port id="1" precision="FP16">
					<dim>192</dim>
					<dim>32</dim>
					<dim>1</dim>
					<dim>1</dim>
				</port>
			</output>
		</layer>
		<layer id="180" name="model/block_3_expand/Conv2D/fq_weights_1/Copy/out_low5146_const" type="Const" version="opset1">
			<data element_type="f16" offset="1312" shape="1" size="2"/>
			<output>
				<port id="1" precision="FP16">
					<dim>1</dim>
				</port>
			</output>
		</layer>
		<layer id="181" name="model/block_3_expand/Conv2D/fq_weights_1/Copy/out_high5147_const" type="Const" version="opset1">
			<data element_type="f16" offset="1314" shape="1" size="2"/>
			<output>
				<port id="1" precision="FP16">
					<dim>1</dim>
				</port>
			</output>
		</layer>
		<layer id="182" name="18861890_const" type="Const" version="opset1">
			<data element_type="f16" offset="39842" shape="192,1,1,1" size="384"/>
			<output>
				<port id="1" precision="FP16">
					<dim>192</dim>
					<dim>1</dim>
					<dim>1</dim>
					<dim>1</dim>
				</port>
			</output>
		</layer>
		<layer id="183" name="18871891_const" type="Const" version="opset1">
			<data element_type="f16" offset="40226" shape="192,1,1,1" size="384"/>
			<output>
				<port id="1" precision="FP16">
					<dim>192</dim>
					<dim>1</dim>
					<dim>1</dim>
					<dim>1</dim>
				</port>
			</output>
		</layer>
		<layer id="184" name="model/block_3_expand/Conv2D/fq_weights_1" type="FakeQuantize" version="opset1">
			<data levels="255"/>
			<input>
				<port id="0">
					<dim>192</dim>
					<dim>32</dim>
					<dim>1</dim>
					<dim>1</dim>
				</port>
				<port id="1">
					<dim>1</dim>
				</port>
				<port id="2">
					<dim>1</dim>
				</port>
				<port id="3">
					<dim>192</dim>
					<dim>1</dim>
					<dim>1</dim>
					<dim>1</dim>
				</port>
				<port id="4">
					<dim>192</dim>
					<dim>1</dim>
					<dim>1</dim>
					<dim>1</dim>
				</port>
			</input>
			<output>
				<port id="5" precision="FP16">
					<dim>192</dim>
					<dim>32</dim>
					<dim>1</dim>
					<dim>1</dim>
				</port>
			</output>
		</layer>
		<layer id="185" name="model/block_3_expand/Conv2D" type="Convolution" version="opset1">
			<data auto_pad="same_upper" dilations="1,1" output_padding="0,0" pads_begin="0,0" pads_end="0,0" strides="1,1"/>
			<input>
				<port id="0">
					<dim>1</dim>
					<dim>32</dim>
					<dim>192</dim>
					<dim>320</dim>
				</port>
				<port id="1">
					<dim>192</dim>
					<dim>32</dim>
					<dim>1</dim>
					<dim>1</dim>
				</port>
			</input>
			<output>
				<port id="2" precision="FP16">
					<dim>1</dim>
					<dim>192</dim>
					<dim>192</dim>
					<dim>320</dim>
				</port>
			</output>
		</layer>
		<layer id="186" name="data_add_1170711712/copy_const425_const" type="Const" version="opset1">
			<data element_type="f16" offset="40610" shape="1,192,1,1" size="384"/>
			<output>
				<port id="1" precision="FP16">
					<dim>1</dim>
					<dim>192</dim>
					<dim>1</dim>
					<dim>1</dim>
				</port>
			</output>
		</layer>
		<layer id="187" name="model/block_3_expand_BN/FusedBatchNorm/variance/Fused_Add_" type="Add" version="opset1">
			<input>
				<port id="0">
					<dim>1</dim>
					<dim>192</dim>
					<dim>192</dim>
					<dim>320</dim>
				</port>
				<port id="1">
					<dim>1</dim>
					<dim>192</dim>
					<dim>1</dim>
					<dim>1</dim>
				</port>
			</input>
			<output>
				<port id="2" precision="FP16">
					<dim>1</dim>
					<dim>192</dim>
					<dim>192</dim>
					<dim>320</dim>
				</port>
			</output>
		</layer>
		<layer id="188" name="model/block_3_expand_relu/Relu6" type="Clamp" version="opset1">
			<data max="6" min="0"/>
			<input>
				<port id="0">
					<dim>1</dim>
					<dim>192</dim>
					<dim>192</dim>
					<dim>320</dim>
				</port>
			</input>
			<output>
				<port id="1" precision="FP16">
					<dim>1</dim>
					<dim>192</dim>
					<dim>192</dim>
					<dim>320</dim>
				</port>
			</output>
		</layer>
		<layer id="189" name="27742778_const" type="Const" version="opset1">
			<data element_type="f16" offset="23054" shape="1,192,1,1" size="384"/>
			<output>
				<port id="1" precision="FP16">
					<dim>1</dim>
					<dim>192</dim>
					<dim>1</dim>
					<dim>1</dim>
				</port>
			</output>
		</layer>
		<layer id="190" name="27752779_const" type="Const" version="opset1">
			<data element_type="f16" offset="40994" shape="1,192,1,1" size="384"/>
			<output>
				<port id="1" precision="FP16">
					<dim>1</dim>
					<dim>192</dim>
					<dim>1</dim>
					<dim>1</dim>
				</port>
			</output>
		</layer>
		<layer id="191" name="27762780_const" type="Const" version="opset1">
			<data element_type="f16" offset="23054" shape="1,192,1,1" size="384"/>
			<output>
				<port id="1" precision="FP16">
					<dim>1</dim>
					<dim>192</dim>
					<dim>1</dim>
					<dim>1</dim>
				</port>
			</output>
		</layer>
		<layer id="192" name="27772781_const" type="Const" version="opset1">
			<data element_type="f16" offset="40994" shape="1,192,1,1" size="384"/>
			<output>
				<port id="1" precision="FP16">
					<dim>1</dim>
					<dim>192</dim>
					<dim>1</dim>
					<dim>1</dim>
				</port>
			</output>
		</layer>
		<layer id="193" name="model/block_3_depthwise/depthwise/fq_input_0" type="FakeQuantize" version="opset1">
			<data levels="256"/>
			<input>
				<port id="0">
					<dim>1</dim>
					<dim>192</dim>
					<dim>192</dim>
					<dim>320</dim>
				</port>
				<port id="1">
					<dim>1</dim>
					<dim>192</dim>
					<dim>1</dim>
					<dim>1</dim>
				</port>
				<port id="2">
					<dim>1</dim>
					<dim>192</dim>
					<dim>1</dim>
					<dim>1</dim>
				</port>
				<port id="3">
					<dim>1</dim>
					<dim>192</dim>
					<dim>1</dim>
					<dim>1</dim>
				</port>
				<port id="4">
					<dim>1</dim>
					<dim>192</dim>
					<dim>1</dim>
					<dim>1</dim>
				</port>
			</input>
			<output>
				<port id="5" precision="FP16">
					<dim>1</dim>
					<dim>192</dim>
					<dim>192</dim>
					<dim>320</dim>
				</port>
			</output>
		</layer>
		<layer id="194" name="model/block_3_depthwise/depthwise/fq_weights_1/Convert_to_float/Cast_06416_const" type="Const" version="opset1">
			<data element_type="u8" offset="41378" shape="192,1,3,3" size="1728"/>
			<output>
				<port id="1" precision="U8">
					<dim>192</dim>
					<dim>1</dim>
					<dim>3</dim>
					<dim>3</dim>
				</port>
			</output>
		</layer>
		<layer id="195" name="model/block_3_depthwise/depthwise/fq_weights_1/Convert_to_float" type="Convert" version="opset1">
			<data destination_type="f16"/>
			<input>
				<port id="0">
					<dim>192</dim>
					<dim>1</dim>
					<dim>3</dim>
					<dim>3</dim>
				</port>
			</input>
			<output>
				<port id="1" precision="FP16">
					<dim>192</dim>
					<dim>1</dim>
					<dim>3</dim>
					<dim>3</dim>
				</port>
			</output>
		</layer>
		<layer id="196" name="model/block_3_depthwise/depthwise/fq_weights_1/Copy/out_low5194_const" type="Const" version="opset1">
			<data element_type="f16" offset="1312" shape="1" size="2"/>
			<output>
				<port id="1" precision="FP16">
					<dim>1</dim>
				</port>
			</output>
		</layer>
		<layer id="197" name="model/block_3_depthwise/depthwise/fq_weights_1/Copy/out_high5195_const" type="Const" version="opset1">
			<data element_type="f16" offset="1314" shape="1" size="2"/>
			<output>
				<port id="1" precision="FP16">
					<dim>1</dim>
				</port>
			</output>
		</layer>
		<layer id="198" name="27862790_const" type="Const" version="opset1">
			<data element_type="f16" offset="43106" shape="192,1,1,1" size="384"/>
			<output>
				<port id="1" precision="FP16">
					<dim>192</dim>
					<dim>1</dim>
					<dim>1</dim>
					<dim>1</dim>
				</port>
			</output>
		</layer>
		<layer id="199" name="27872791_const" type="Const" version="opset1">
			<data element_type="f16" offset="43490" shape="192,1,1,1" size="384"/>
			<output>
				<port id="1" precision="FP16">
					<dim>192</dim>
					<dim>1</dim>
					<dim>1</dim>
					<dim>1</dim>
				</port>
			</output>
		</layer>
		<layer id="200" name="model/block_3_depthwise/depthwise/fq_weights_1" type="FakeQuantize" version="opset1">
			<data levels="255"/>
			<input>
				<port id="0">
					<dim>192</dim>
					<dim>1</dim>
					<dim>3</dim>
					<dim>3</dim>
				</port>
				<port id="1">
					<dim>1</dim>
				</port>
				<port id="2">
					<dim>1</dim>
				</port>
				<port id="3">
					<dim>192</dim>
					<dim>1</dim>
					<dim>1</dim>
					<dim>1</dim>
				</port>
				<port id="4">
					<dim>192</dim>
					<dim>1</dim>
					<dim>1</dim>
					<dim>1</dim>
				</port>
			</input>
			<output>
				<port id="5" precision="FP16">
					<dim>192</dim>
					<dim>1</dim>
					<dim>3</dim>
					<dim>3</dim>
				</port>
			</output>
		</layer>
		<layer id="201" name="7259/value7261_const" type="Const" version="opset1">
			<data element_type="i64" offset="26318" shape="5" size="40"/>
			<output>
				<port id="1" precision="I64">
					<dim>5</dim>
				</port>
			</output>
		</layer>
		<layer id="202" name="7259" type="Reshape" version="opset1">
			<data special_zero="True"/>
			<input>
				<port id="0">
					<dim>192</dim>
					<dim>1</dim>
					<dim>3</dim>
					<dim>3</dim>
				</port>
				<port id="1">
					<dim>5</dim>
				</port>
			</input>
			<output>
				<port id="2" precision="FP16">
					<dim>192</dim>
					<dim>1</dim>
					<dim>1</dim>
					<dim>3</dim>
					<dim>3</dim>
				</port>
			</output>
		</layer>
		<layer id="203" name="model/block_3_depthwise/depthwise" type="GroupConvolution" version="opset1">
			<data dilations="1,1" output_padding="0,0" pads_begin="0,0" pads_end="1,1" strides="2,2"/>
			<input>
				<port id="0">
					<dim>1</dim>
					<dim>192</dim>
					<dim>192</dim>
					<dim>320</dim>
				</port>
				<port id="1">
					<dim>192</dim>
					<dim>1</dim>
					<dim>1</dim>
					<dim>3</dim>
					<dim>3</dim>
				</port>
			</input>
			<output>
				<port id="2" precision="FP16">
					<dim>1</dim>
					<dim>192</dim>
					<dim>96</dim>
					<dim>160</dim>
				</port>
			</output>
		</layer>
		<layer id="204" name="data_add_1171511720/copy_const430_const" type="Const" version="opset1">
			<data element_type="f16" offset="43874" shape="1,192,1,1" size="384"/>
			<output>
				<port id="1" precision="FP16">
					<dim>1</dim>
					<dim>192</dim>
					<dim>1</dim>
					<dim>1</dim>
				</port>
			</output>
		</layer>
		<layer id="205" name="model/block_3_depthwise_BN/FusedBatchNorm/variance/Fused_Add_" type="Add" version="opset1">
			<input>
				<port id="0">
					<dim>1</dim>
					<dim>192</dim>
					<dim>96</dim>
					<dim>160</dim>
				</port>
				<port id="1">
					<dim>1</dim>
					<dim>192</dim>
					<dim>1</dim>
					<dim>1</dim>
				</port>
			</input>
			<output>
				<port id="2" precision="FP16">
					<dim>1</dim>
					<dim>192</dim>
					<dim>96</dim>
					<dim>160</dim>
				</port>
			</output>
		</layer>
		<layer id="206" name="model/block_3_depthwise_relu/Relu6" type="Clamp" version="opset1">
			<data max="6" min="0"/>
			<input>
				<port id="0">
					<dim>1</dim>
					<dim>192</dim>
					<dim>96</dim>
					<dim>160</dim>
				</port>
			</input>
			<output>
				<port id="1" precision="FP16">
					<dim>1</dim>
					<dim>192</dim>
					<dim>96</dim>
					<dim>160</dim>
				</port>
			</output>
		</layer>
		<layer id="207" name="23442348_const" type="Const" version="opset1">
			<data element_type="f16" offset="1312" shape="" size="2"/>
			<output>
				<port id="1" precision="FP16"/>
			</output>
		</layer>
		<layer id="208" name="23452349_const" type="Const" version="opset1">
			<data element_type="f16" offset="2556" shape="" size="2"/>
			<output>
				<port id="1" precision="FP16"/>
			</output>
		</layer>
		<layer id="209" name="23462350_const" type="Const" version="opset1">
			<data element_type="f16" offset="1312" shape="" size="2"/>
			<output>
				<port id="1" precision="FP16"/>
			</output>
		</layer>
		<layer id="210" name="23472351_const" type="Const" version="opset1">
			<data element_type="f16" offset="2556" shape="" size="2"/>
			<output>
				<port id="1" precision="FP16"/>
			</output>
		</layer>
		<layer id="211" name="model/block_3_project/Conv2D/fq_input_0" type="FakeQuantize" version="opset1">
			<data levels="256"/>
			<input>
				<port id="0">
					<dim>1</dim>
					<dim>192</dim>
					<dim>96</dim>
					<dim>160</dim>
				</port>
				<port id="1"/>
				<port id="2"/>
				<port id="3"/>
				<port id="4"/>
			</input>
			<output>
				<port id="5" precision="FP16">
					<dim>1</dim>
					<dim>192</dim>
					<dim>96</dim>
					<dim>160</dim>
				</port>
			</output>
		</layer>
		<layer id="212" name="model/block_3_project/Conv2D/fq_weights_1/Convert_to_float/Cast_06354_const" type="Const" version="opset1">
			<data element_type="u8" offset="44258" shape="48,192,1,1" size="9216"/>
			<output>
				<port id="1" precision="U8">
					<dim>48</dim>
					<dim>192</dim>
					<dim>1</dim>
					<dim>1</dim>
				</port>
			</output>
		</layer>
		<layer id="213" name="model/block_3_project/Conv2D/fq_weights_1/Convert_to_float" type="Convert" version="opset1">
			<data destination_type="f16"/>
			<input>
				<port id="0">
					<dim>48</dim>
					<dim>192</dim>
					<dim>1</dim>
					<dim>1</dim>
				</port>
			</input>
			<output>
				<port id="1" precision="FP16">
					<dim>48</dim>
					<dim>192</dim>
					<dim>1</dim>
					<dim>1</dim>
				</port>
			</output>
		</layer>
		<layer id="214" name="model/block_3_project/Conv2D/fq_weights_1/Copy/out_low5562_const" type="Const" version="opset1">
			<data element_type="f16" offset="1312" shape="1" size="2"/>
			<output>
				<port id="1" precision="FP16">
					<dim>1</dim>
				</port>
			</output>
		</layer>
		<layer id="215" name="model/block_3_project/Conv2D/fq_weights_1/Copy/out_high5563_const" type="Const" version="opset1">
			<data element_type="f16" offset="1314" shape="1" size="2"/>
			<output>
				<port id="1" precision="FP16">
					<dim>1</dim>
				</port>
			</output>
		</layer>
		<layer id="216" name="23562360_const" type="Const" version="opset1">
			<data element_type="f16" offset="53474" shape="48,1,1,1" size="96"/>
			<output>
				<port id="1" precision="FP16">
					<dim>48</dim>
					<dim>1</dim>
					<dim>1</dim>
					<dim>1</dim>
				</port>
			</output>
		</layer>
		<layer id="217" name="23572361_const" type="Const" version="opset1">
			<data element_type="f16" offset="53570" shape="48,1,1,1" size="96"/>
			<output>
				<port id="1" precision="FP16">
					<dim>48</dim>
					<dim>1</dim>
					<dim>1</dim>
					<dim>1</dim>
				</port>
			</output>
		</layer>
		<layer id="218" name="model/block_3_project/Conv2D/fq_weights_1" type="FakeQuantize" version="opset1">
			<data levels="255"/>
			<input>
				<port id="0">
					<dim>48</dim>
					<dim>192</dim>
					<dim>1</dim>
					<dim>1</dim>
				</port>
				<port id="1">
					<dim>1</dim>
				</port>
				<port id="2">
					<dim>1</dim>
				</port>
				<port id="3">
					<dim>48</dim>
					<dim>1</dim>
					<dim>1</dim>
					<dim>1</dim>
				</port>
				<port id="4">
					<dim>48</dim>
					<dim>1</dim>
					<dim>1</dim>
					<dim>1</dim>
				</port>
			</input>
			<output>
				<port id="5" precision="FP16">
					<dim>48</dim>
					<dim>192</dim>
					<dim>1</dim>
					<dim>1</dim>
				</port>
			</output>
		</layer>
		<layer id="219" name="model/block_3_project/Conv2D" type="Convolution" version="opset1">
			<data auto_pad="same_upper" dilations="1,1" output_padding="0,0" pads_begin="0,0" pads_end="0,0" strides="1,1"/>
			<input>
				<port id="0">
					<dim>1</dim>
					<dim>192</dim>
					<dim>96</dim>
					<dim>160</dim>
				</port>
				<port id="1">
					<dim>48</dim>
					<dim>192</dim>
					<dim>1</dim>
					<dim>1</dim>
				</port>
			</input>
			<output>
				<port id="2" precision="FP16">
					<dim>1</dim>
					<dim>48</dim>
					<dim>96</dim>
					<dim>160</dim>
				</port>
			</output>
		</layer>
		<layer id="220" name="data_add_1172311728/copy_const435_const" type="Const" version="opset1">
			<data element_type="f16" offset="53666" shape="1,48,1,1" size="96"/>
			<output>
				<port id="1" precision="FP16">
					<dim>1</dim>
					<dim>48</dim>
					<dim>1</dim>
					<dim>1</dim>
				</port>
			</output>
		</layer>
		<layer id="221" name="model/block_3_project_BN/FusedBatchNorm/variance/Fused_Add_" type="Add" version="opset1">
			<input>
				<port id="0">
					<dim>1</dim>
					<dim>48</dim>
					<dim>96</dim>
					<dim>160</dim>
				</port>
				<port id="1">
					<dim>1</dim>
					<dim>48</dim>
					<dim>1</dim>
					<dim>1</dim>
				</port>
			</input>
			<output>
				<port id="2" precision="FP16">
					<dim>1</dim>
					<dim>48</dim>
					<dim>96</dim>
					<dim>160</dim>
				</port>
			</output>
		</layer>
		<layer id="222" name="16741678_const" type="Const" version="opset1">
			<data element_type="f16" offset="53762" shape="" size="2"/>
			<output>
				<port id="1" precision="FP16"/>
			</output>
		</layer>
		<layer id="223" name="16751679_const" type="Const" version="opset1">
			<data element_type="f16" offset="53764" shape="" size="2"/>
			<output>
				<port id="1" precision="FP16"/>
			</output>
		</layer>
		<layer id="224" name="16761680_const" type="Const" version="opset1">
			<data element_type="f16" offset="53762" shape="" size="2"/>
			<output>
				<port id="1" precision="FP16"/>
			</output>
		</layer>
		<layer id="225" name="16771681_const" type="Const" version="opset1">
			<data element_type="f16" offset="53764" shape="" size="2"/>
			<output>
				<port id="1" precision="FP16"/>
			</output>
		</layer>
		<layer id="226" name="model/block_4_add/add/fq_input_0" type="FakeQuantize" version="opset1">
			<data levels="256"/>
			<input>
				<port id="0">
					<dim>1</dim>
					<dim>48</dim>
					<dim>96</dim>
					<dim>160</dim>
				</port>
				<port id="1"/>
				<port id="2"/>
				<port id="3"/>
				<port id="4"/>
			</input>
			<output>
				<port id="5" precision="FP16">
					<dim>1</dim>
					<dim>48</dim>
					<dim>96</dim>
					<dim>160</dim>
				</port>
			</output>
		</layer>
		<layer id="227" name="model/block_4_expand/Conv2D/fq_weights_1/Convert_to_float/Cast_06460_const" type="Const" version="opset1">
			<data element_type="u8" offset="53766" shape="288,48,1,1" size="13824"/>
			<output>
				<port id="1" precision="U8">
					<dim>288</dim>
					<dim>48</dim>
					<dim>1</dim>
					<dim>1</dim>
				</port>
			</output>
		</layer>
		<layer id="228" name="model/block_4_expand/Conv2D/fq_weights_1/Convert_to_float" type="Convert" version="opset1">
			<data destination_type="f16"/>
			<input>
				<port id="0">
					<dim>288</dim>
					<dim>48</dim>
					<dim>1</dim>
					<dim>1</dim>
				</port>
			</input>
			<output>
				<port id="1" precision="FP16">
					<dim>288</dim>
					<dim>48</dim>
					<dim>1</dim>
					<dim>1</dim>
				</port>
			</output>
		</layer>
		<layer id="229" name="model/block_4_expand/Conv2D/fq_weights_1/Copy/out_low5354_const" type="Const" version="opset1">
			<data element_type="f16" offset="1312" shape="1" size="2"/>
			<output>
				<port id="1" precision="FP16">
					<dim>1</dim>
				</port>
			</output>
		</layer>
		<layer id="230" name="model/block_4_expand/Conv2D/fq_weights_1/Copy/out_high5355_const" type="Const" version="opset1">
			<data element_type="f16" offset="1314" shape="1" size="2"/>
			<output>
				<port id="1" precision="FP16">
					<dim>1</dim>
				</port>
			</output>
		</layer>
		<layer id="231" name="18461850_const" type="Const" version="opset1">
			<data element_type="f16" offset="67590" shape="288,1,1,1" size="576"/>
			<output>
				<port id="1" precision="FP16">
					<dim>288</dim>
					<dim>1</dim>
					<dim>1</dim>
					<dim>1</dim>
				</port>
			</output>
		</layer>
		<layer id="232" name="18471851_const" type="Const" version="opset1">
			<data element_type="f16" offset="68166" shape="288,1,1,1" size="576"/>
			<output>
				<port id="1" precision="FP16">
					<dim>288</dim>
					<dim>1</dim>
					<dim>1</dim>
					<dim>1</dim>
				</port>
			</output>
		</layer>
		<layer id="233" name="model/block_4_expand/Conv2D/fq_weights_1" type="FakeQuantize" version="opset1">
			<data levels="255"/>
			<input>
				<port id="0">
					<dim>288</dim>
					<dim>48</dim>
					<dim>1</dim>
					<dim>1</dim>
				</port>
				<port id="1">
					<dim>1</dim>
				</port>
				<port id="2">
					<dim>1</dim>
				</port>
				<port id="3">
					<dim>288</dim>
					<dim>1</dim>
					<dim>1</dim>
					<dim>1</dim>
				</port>
				<port id="4">
					<dim>288</dim>
					<dim>1</dim>
					<dim>1</dim>
					<dim>1</dim>
				</port>
			</input>
			<output>
				<port id="5" precision="FP16">
					<dim>288</dim>
					<dim>48</dim>
					<dim>1</dim>
					<dim>1</dim>
				</port>
			</output>
		</layer>
		<layer id="234" name="model/block_4_expand/Conv2D" type="Convolution" version="opset1">
			<data auto_pad="same_upper" dilations="1,1" output_padding="0,0" pads_begin="0,0" pads_end="0,0" strides="1,1"/>
			<input>
				<port id="0">
					<dim>1</dim>
					<dim>48</dim>
					<dim>96</dim>
					<dim>160</dim>
				</port>
				<port id="1">
					<dim>288</dim>
					<dim>48</dim>
					<dim>1</dim>
					<dim>1</dim>
				</port>
			</input>
			<output>
				<port id="2" precision="FP16">
					<dim>1</dim>
					<dim>288</dim>
					<dim>96</dim>
					<dim>160</dim>
				</port>
			</output>
		</layer>
		<layer id="235" name="data_add_1173111736/copy_const439_const" type="Const" version="opset1">
			<data element_type="f16" offset="68742" shape="1,288,1,1" size="576"/>
			<output>
				<port id="1" precision="FP16">
					<dim>1</dim>
					<dim>288</dim>
					<dim>1</dim>
					<dim>1</dim>
				</port>
			</output>
		</layer>
		<layer id="236" name="model/block_4_expand_BN/FusedBatchNorm/variance/Fused_Add_" type="Add" version="opset1">
			<input>
				<port id="0">
					<dim>1</dim>
					<dim>288</dim>
					<dim>96</dim>
					<dim>160</dim>
				</port>
				<port id="1">
					<dim>1</dim>
					<dim>288</dim>
					<dim>1</dim>
					<dim>1</dim>
				</port>
			</input>
			<output>
				<port id="2" precision="FP16">
					<dim>1</dim>
					<dim>288</dim>
					<dim>96</dim>
					<dim>160</dim>
				</port>
			</output>
		</layer>
		<layer id="237" name="model/block_4_expand_relu/Relu6" type="Clamp" version="opset1">
			<data max="6" min="0"/>
			<input>
				<port id="0">
					<dim>1</dim>
					<dim>288</dim>
					<dim>96</dim>
					<dim>160</dim>
				</port>
			</input>
			<output>
				<port id="1" precision="FP16">
					<dim>1</dim>
					<dim>288</dim>
					<dim>96</dim>
					<dim>160</dim>
				</port>
			</output>
		</layer>
		<layer id="238" name="18941898_const" type="Const" version="opset1">
			<data element_type="f16" offset="69318" shape="1,288,1,1" size="576"/>
			<output>
				<port id="1" precision="FP16">
					<dim>1</dim>
					<dim>288</dim>
					<dim>1</dim>
					<dim>1</dim>
				</port>
			</output>
		</layer>
		<layer id="239" name="18951899_const" type="Const" version="opset1">
			<data element_type="f16" offset="69894" shape="1,288,1,1" size="576"/>
			<output>
				<port id="1" precision="FP16">
					<dim>1</dim>
					<dim>288</dim>
					<dim>1</dim>
					<dim>1</dim>
				</port>
			</output>
		</layer>
		<layer id="240" name="18961900_const" type="Const" version="opset1">
			<data element_type="f16" offset="69318" shape="1,288,1,1" size="576"/>
			<output>
				<port id="1" precision="FP16">
					<dim>1</dim>
					<dim>288</dim>
					<dim>1</dim>
					<dim>1</dim>
				</port>
			</output>
		</layer>
		<layer id="241" name="18971901_const" type="Const" version="opset1">
			<data element_type="f16" offset="69894" shape="1,288,1,1" size="576"/>
			<output>
				<port id="1" precision="FP16">
					<dim>1</dim>
					<dim>288</dim>
					<dim>1</dim>
					<dim>1</dim>
				</port>
			</output>
		</layer>
		<layer id="242" name="model/block_4_depthwise/depthwise/fq_input_0" type="FakeQuantize" version="opset1">
			<data levels="256"/>
			<input>
				<port id="0">
					<dim>1</dim>
					<dim>288</dim>
					<dim>96</dim>
					<dim>160</dim>
				</port>
				<port id="1">
					<dim>1</dim>
					<dim>288</dim>
					<dim>1</dim>
					<dim>1</dim>
				</port>
				<port id="2">
					<dim>1</dim>
					<dim>288</dim>
					<dim>1</dim>
					<dim>1</dim>
				</port>
				<port id="3">
					<dim>1</dim>
					<dim>288</dim>
					<dim>1</dim>
					<dim>1</dim>
				</port>
				<port id="4">
					<dim>1</dim>
					<dim>288</dim>
					<dim>1</dim>
					<dim>1</dim>
				</port>
			</input>
			<output>
				<port id="5" precision="FP16">
					<dim>1</dim>
					<dim>288</dim>
					<dim>96</dim>
					<dim>160</dim>
				</port>
			</output>
		</layer>
		<layer id="243" name="model/block_4_depthwise/depthwise/fq_weights_1/Convert_to_float/Cast_06350_const" type="Const" version="opset1">
			<data element_type="u8" offset="70470" shape="288,1,3,3" size="2592"/>
			<output>
				<port id="1" precision="U8">
					<dim>288</dim>
					<dim>1</dim>
					<dim>3</dim>
					<dim>3</dim>
				</port>
			</output>
		</layer>
		<layer id="244" name="model/block_4_depthwise/depthwise/fq_weights_1/Convert_to_float" type="Convert" version="opset1">
			<data destination_type="f16"/>
			<input>
				<port id="0">
					<dim>288</dim>
					<dim>1</dim>
					<dim>3</dim>
					<dim>3</dim>
				</port>
			</input>
			<output>
				<port id="1" precision="FP16">
					<dim>288</dim>
					<dim>1</dim>
					<dim>3</dim>
					<dim>3</dim>
				</port>
			</output>
		</layer>
		<layer id="245" name="model/block_4_depthwise/depthwise/fq_weights_1/Copy/out_low5154_const" type="Const" version="opset1">
			<data element_type="f16" offset="1312" shape="1" size="2"/>
			<output>
				<port id="1" precision="FP16">
					<dim>1</dim>
				</port>
			</output>
		</layer>
		<layer id="246" name="model/block_4_depthwise/depthwise/fq_weights_1/Copy/out_high5155_const" type="Const" version="opset1">
			<data element_type="f16" offset="1314" shape="1" size="2"/>
			<output>
				<port id="1" precision="FP16">
					<dim>1</dim>
				</port>
			</output>
		</layer>
		<layer id="247" name="19061910_const" type="Const" version="opset1">
			<data element_type="f16" offset="73062" shape="288,1,1,1" size="576"/>
			<output>
				<port id="1" precision="FP16">
					<dim>288</dim>
					<dim>1</dim>
					<dim>1</dim>
					<dim>1</dim>
				</port>
			</output>
		</layer>
		<layer id="248" name="19071911_const" type="Const" version="opset1">
			<data element_type="f16" offset="73638" shape="288,1,1,1" size="576"/>
			<output>
				<port id="1" precision="FP16">
					<dim>288</dim>
					<dim>1</dim>
					<dim>1</dim>
					<dim>1</dim>
				</port>
			</output>
		</layer>
		<layer id="249" name="model/block_4_depthwise/depthwise/fq_weights_1" type="FakeQuantize" version="opset1">
			<data levels="255"/>
			<input>
				<port id="0">
					<dim>288</dim>
					<dim>1</dim>
					<dim>3</dim>
					<dim>3</dim>
				</port>
				<port id="1">
					<dim>1</dim>
				</port>
				<port id="2">
					<dim>1</dim>
				</port>
				<port id="3">
					<dim>288</dim>
					<dim>1</dim>
					<dim>1</dim>
					<dim>1</dim>
				</port>
				<port id="4">
					<dim>288</dim>
					<dim>1</dim>
					<dim>1</dim>
					<dim>1</dim>
				</port>
			</input>
			<output>
				<port id="5" precision="FP16">
					<dim>288</dim>
					<dim>1</dim>
					<dim>3</dim>
					<dim>3</dim>
				</port>
			</output>
		</layer>
		<layer id="250" name="7247/value7249_const" type="Const" version="opset1">
			<data element_type="i64" offset="74214" shape="5" size="40"/>
			<output>
				<port id="1" precision="I64">
					<dim>5</dim>
				</port>
			</output>
		</layer>
		<layer id="251" name="7247" type="Reshape" version="opset1">
			<data special_zero="True"/>
			<input>
				<port id="0">
					<dim>288</dim>
					<dim>1</dim>
					<dim>3</dim>
					<dim>3</dim>
				</port>
				<port id="1">
					<dim>5</dim>
				</port>
			</input>
			<output>
				<port id="2" precision="FP16">
					<dim>288</dim>
					<dim>1</dim>
					<dim>1</dim>
					<dim>3</dim>
					<dim>3</dim>
				</port>
			</output>
		</layer>
		<layer id="252" name="model/block_4_depthwise/depthwise" type="GroupConvolution" version="opset1">
			<data auto_pad="same_upper" dilations="1,1" output_padding="0,0" pads_begin="0,0" pads_end="0,0" strides="1,1"/>
			<input>
				<port id="0">
					<dim>1</dim>
					<dim>288</dim>
					<dim>96</dim>
					<dim>160</dim>
				</port>
				<port id="1">
					<dim>288</dim>
					<dim>1</dim>
					<dim>1</dim>
					<dim>3</dim>
					<dim>3</dim>
				</port>
			</input>
			<output>
				<port id="2" precision="FP16">
					<dim>1</dim>
					<dim>288</dim>
					<dim>96</dim>
					<dim>160</dim>
				</port>
			</output>
		</layer>
		<layer id="253" name="data_add_1173911744/copy_const444_const" type="Const" version="opset1">
			<data element_type="f16" offset="74254" shape="1,288,1,1" size="576"/>
			<output>
				<port id="1" precision="FP16">
					<dim>1</dim>
					<dim>288</dim>
					<dim>1</dim>
					<dim>1</dim>
				</port>
			</output>
		</layer>
		<layer id="254" name="model/block_4_depthwise_BN/FusedBatchNorm/variance/Fused_Add_" type="Add" version="opset1">
			<input>
				<port id="0">
					<dim>1</dim>
					<dim>288</dim>
					<dim>96</dim>
					<dim>160</dim>
				</port>
				<port id="1">
					<dim>1</dim>
					<dim>288</dim>
					<dim>1</dim>
					<dim>1</dim>
				</port>
			</input>
			<output>
				<port id="2" precision="FP16">
					<dim>1</dim>
					<dim>288</dim>
					<dim>96</dim>
					<dim>160</dim>
				</port>
			</output>
		</layer>
		<layer id="255" name="model/block_4_depthwise_relu/Relu6" type="Clamp" version="opset1">
			<data max="6" min="0"/>
			<input>
				<port id="0">
					<dim>1</dim>
					<dim>288</dim>
					<dim>96</dim>
					<dim>160</dim>
				</port>
			</input>
			<output>
				<port id="1" precision="FP16">
					<dim>1</dim>
					<dim>288</dim>
					<dim>96</dim>
					<dim>160</dim>
				</port>
			</output>
		</layer>
		<layer id="256" name="15341538_const" type="Const" version="opset1">
			<data element_type="f16" offset="1312" shape="" size="2"/>
			<output>
				<port id="1" precision="FP16"/>
			</output>
		</layer>
		<layer id="257" name="15351539_const" type="Const" version="opset1">
			<data element_type="f16" offset="2556" shape="" size="2"/>
			<output>
				<port id="1" precision="FP16"/>
			</output>
		</layer>
		<layer id="258" name="15361540_const" type="Const" version="opset1">
			<data element_type="f16" offset="1312" shape="" size="2"/>
			<output>
				<port id="1" precision="FP16"/>
			</output>
		</layer>
		<layer id="259" name="15371541_const" type="Const" version="opset1">
			<data element_type="f16" offset="2556" shape="" size="2"/>
			<output>
				<port id="1" precision="FP16"/>
			</output>
		</layer>
		<layer id="260" name="model/block_4_project/Conv2D/fq_input_0" type="FakeQuantize" version="opset1">
			<data levels="256"/>
			<input>
				<port id="0">
					<dim>1</dim>
					<dim>288</dim>
					<dim>96</dim>
					<dim>160</dim>
				</port>
				<port id="1"/>
				<port id="2"/>
				<port id="3"/>
				<port id="4"/>
			</input>
			<output>
				<port id="5" precision="FP16">
					<dim>1</dim>
					<dim>288</dim>
					<dim>96</dim>
					<dim>160</dim>
				</port>
			</output>
		</layer>
		<layer id="261" name="model/block_4_project/Conv2D/fq_weights_1/Convert_to_float/Cast_06442_const" type="Const" version="opset1">
			<data element_type="u8" offset="74830" shape="48,288,1,1" size="13824"/>
			<output>
				<port id="1" precision="U8">
					<dim>48</dim>
					<dim>288</dim>
					<dim>1</dim>
					<dim>1</dim>
				</port>
			</output>
		</layer>
		<layer id="262" name="model/block_4_project/Conv2D/fq_weights_1/Convert_to_float" type="Convert" version="opset1">
			<data destination_type="f16"/>
			<input>
				<port id="0">
					<dim>48</dim>
					<dim>288</dim>
					<dim>1</dim>
					<dim>1</dim>
				</port>
			</input>
			<output>
				<port id="1" precision="FP16">
					<dim>48</dim>
					<dim>288</dim>
					<dim>1</dim>
					<dim>1</dim>
				</port>
			</output>
		</layer>
		<layer id="263" name="model/block_4_project/Conv2D/fq_weights_1/Copy/out_low5322_const" type="Const" version="opset1">
			<data element_type="f16" offset="1312" shape="1" size="2"/>
			<output>
				<port id="1" precision="FP16">
					<dim>1</dim>
				</port>
			</output>
		</layer>
		<layer id="264" name="model/block_4_project/Conv2D/fq_weights_1/Copy/out_high5323_const" type="Const" version="opset1">
			<data element_type="f16" offset="1314" shape="1" size="2"/>
			<output>
				<port id="1" precision="FP16">
					<dim>1</dim>
				</port>
			</output>
		</layer>
		<layer id="265" name="15461550_const" type="Const" version="opset1">
			<data element_type="f16" offset="88654" shape="48,1,1,1" size="96"/>
			<output>
				<port id="1" precision="FP16">
					<dim>48</dim>
					<dim>1</dim>
					<dim>1</dim>
					<dim>1</dim>
				</port>
			</output>
		</layer>
		<layer id="266" name="15471551_const" type="Const" version="opset1">
			<data element_type="f16" offset="88750" shape="48,1,1,1" size="96"/>
			<output>
				<port id="1" precision="FP16">
					<dim>48</dim>
					<dim>1</dim>
					<dim>1</dim>
					<dim>1</dim>
				</port>
			</output>
		</layer>
		<layer id="267" name="model/block_4_project/Conv2D/fq_weights_1" type="FakeQuantize" version="opset1">
			<data levels="255"/>
			<input>
				<port id="0">
					<dim>48</dim>
					<dim>288</dim>
					<dim>1</dim>
					<dim>1</dim>
				</port>
				<port id="1">
					<dim>1</dim>
				</port>
				<port id="2">
					<dim>1</dim>
				</port>
				<port id="3">
					<dim>48</dim>
					<dim>1</dim>
					<dim>1</dim>
					<dim>1</dim>
				</port>
				<port id="4">
					<dim>48</dim>
					<dim>1</dim>
					<dim>1</dim>
					<dim>1</dim>
				</port>
			</input>
			<output>
				<port id="5" precision="FP16">
					<dim>48</dim>
					<dim>288</dim>
					<dim>1</dim>
					<dim>1</dim>
				</port>
			</output>
		</layer>
		<layer id="268" name="model/block_4_project/Conv2D" type="Convolution" version="opset1">
			<data auto_pad="same_upper" dilations="1,1" output_padding="0,0" pads_begin="0,0" pads_end="0,0" strides="1,1"/>
			<input>
				<port id="0">
					<dim>1</dim>
					<dim>288</dim>
					<dim>96</dim>
					<dim>160</dim>
				</port>
				<port id="1">
					<dim>48</dim>
					<dim>288</dim>
					<dim>1</dim>
					<dim>1</dim>
				</port>
			</input>
			<output>
				<port id="2" precision="FP16">
					<dim>1</dim>
					<dim>48</dim>
					<dim>96</dim>
					<dim>160</dim>
				</port>
			</output>
		</layer>
		<layer id="269" name="data_add_1174711752/copy_const449_const" type="Const" version="opset1">
			<data element_type="f16" offset="88846" shape="1,48,1,1" size="96"/>
			<output>
				<port id="1" precision="FP16">
					<dim>1</dim>
					<dim>48</dim>
					<dim>1</dim>
					<dim>1</dim>
				</port>
			</output>
		</layer>
		<layer id="270" name="model/block_4_project_BN/FusedBatchNorm/variance/Fused_Add_" type="Add" version="opset1">
			<input>
				<port id="0">
					<dim>1</dim>
					<dim>48</dim>
					<dim>96</dim>
					<dim>160</dim>
				</port>
				<port id="1">
					<dim>1</dim>
					<dim>48</dim>
					<dim>1</dim>
					<dim>1</dim>
				</port>
			</input>
			<output>
				<port id="2" precision="FP16">
					<dim>1</dim>
					<dim>48</dim>
					<dim>96</dim>
					<dim>160</dim>
				</port>
			</output>
		</layer>
		<layer id="271" name="16841688_const" type="Const" version="opset1">
			<data element_type="f16" offset="88942" shape="" size="2"/>
			<output>
				<port id="1" precision="FP16"/>
			</output>
		</layer>
		<layer id="272" name="16851689_const" type="Const" version="opset1">
			<data element_type="f16" offset="88944" shape="" size="2"/>
			<output>
				<port id="1" precision="FP16"/>
			</output>
		</layer>
		<layer id="273" name="16861690_const" type="Const" version="opset1">
			<data element_type="f16" offset="88942" shape="" size="2"/>
			<output>
				<port id="1" precision="FP16"/>
			</output>
		</layer>
		<layer id="274" name="16871691_const" type="Const" version="opset1">
			<data element_type="f16" offset="88944" shape="" size="2"/>
			<output>
				<port id="1" precision="FP16"/>
			</output>
		</layer>
		<layer id="275" name="model/block_4_add/add/fq_input_1" type="FakeQuantize" version="opset1">
			<data levels="256"/>
			<input>
				<port id="0">
					<dim>1</dim>
					<dim>48</dim>
					<dim>96</dim>
					<dim>160</dim>
				</port>
				<port id="1"/>
				<port id="2"/>
				<port id="3"/>
				<port id="4"/>
			</input>
			<output>
				<port id="5" precision="FP16">
					<dim>1</dim>
					<dim>48</dim>
					<dim>96</dim>
					<dim>160</dim>
				</port>
			</output>
		</layer>
		<layer id="276" name="model/block_4_add/add" type="Add" version="opset1">
			<input>
				<port id="0">
					<dim>1</dim>
					<dim>48</dim>
					<dim>96</dim>
					<dim>160</dim>
				</port>
				<port id="1">
					<dim>1</dim>
					<dim>48</dim>
					<dim>96</dim>
					<dim>160</dim>
				</port>
			</input>
			<output>
				<port id="2" precision="FP16">
					<dim>1</dim>
					<dim>48</dim>
					<dim>96</dim>
					<dim>160</dim>
				</port>
			</output>
		</layer>
		<layer id="277" name="19941998_const" type="Const" version="opset1">
			<data element_type="f16" offset="88946" shape="" size="2"/>
			<output>
				<port id="1" precision="FP16"/>
			</output>
		</layer>
		<layer id="278" name="19951999_const" type="Const" version="opset1">
			<data element_type="f16" offset="88948" shape="" size="2"/>
			<output>
				<port id="1" precision="FP16"/>
			</output>
		</layer>
		<layer id="279" name="19962000_const" type="Const" version="opset1">
			<data element_type="f16" offset="88946" shape="" size="2"/>
			<output>
				<port id="1" precision="FP16"/>
			</output>
		</layer>
		<layer id="280" name="19972001_const" type="Const" version="opset1">
			<data element_type="f16" offset="88948" shape="" size="2"/>
			<output>
				<port id="1" precision="FP16"/>
			</output>
		</layer>
		<layer id="281" name="model/block_5_add/add/fq_input_0" type="FakeQuantize" version="opset1">
			<data levels="256"/>
			<input>
				<port id="0">
					<dim>1</dim>
					<dim>48</dim>
					<dim>96</dim>
					<dim>160</dim>
				</port>
				<port id="1"/>
				<port id="2"/>
				<port id="3"/>
				<port id="4"/>
			</input>
			<output>
				<port id="5" precision="FP16">
					<dim>1</dim>
					<dim>48</dim>
					<dim>96</dim>
					<dim>160</dim>
				</port>
			</output>
		</layer>
		<layer id="282" name="model/block_5_expand/Conv2D/fq_weights_1/Convert_to_float/Cast_06470_const" type="Const" version="opset1">
			<data element_type="u8" offset="88950" shape="288,48,1,1" size="13824"/>
			<output>
				<port id="1" precision="U8">
					<dim>288</dim>
					<dim>48</dim>
					<dim>1</dim>
					<dim>1</dim>
				</port>
			</output>
		</layer>
		<layer id="283" name="model/block_5_expand/Conv2D/fq_weights_1/Convert_to_float" type="Convert" version="opset1">
			<data destination_type="f16"/>
			<input>
				<port id="0">
					<dim>288</dim>
					<dim>48</dim>
					<dim>1</dim>
					<dim>1</dim>
				</port>
			</input>
			<output>
				<port id="1" precision="FP16">
					<dim>288</dim>
					<dim>48</dim>
					<dim>1</dim>
					<dim>1</dim>
				</port>
			</output>
		</layer>
		<layer id="284" name="model/block_5_expand/Conv2D/fq_weights_1/Copy/out_low5434_const" type="Const" version="opset1">
			<data element_type="f16" offset="1312" shape="1" size="2"/>
			<output>
				<port id="1" precision="FP16">
					<dim>1</dim>
				</port>
			</output>
		</layer>
		<layer id="285" name="model/block_5_expand/Conv2D/fq_weights_1/Copy/out_high5435_const" type="Const" version="opset1">
			<data element_type="f16" offset="1314" shape="1" size="2"/>
			<output>
				<port id="1" precision="FP16">
					<dim>1</dim>
				</port>
			</output>
		</layer>
		<layer id="286" name="14461450_const" type="Const" version="opset1">
			<data element_type="f16" offset="102774" shape="288,1,1,1" size="576"/>
			<output>
				<port id="1" precision="FP16">
					<dim>288</dim>
					<dim>1</dim>
					<dim>1</dim>
					<dim>1</dim>
				</port>
			</output>
		</layer>
		<layer id="287" name="14471451_const" type="Const" version="opset1">
			<data element_type="f16" offset="103350" shape="288,1,1,1" size="576"/>
			<output>
				<port id="1" precision="FP16">
					<dim>288</dim>
					<dim>1</dim>
					<dim>1</dim>
					<dim>1</dim>
				</port>
			</output>
		</layer>
		<layer id="288" name="model/block_5_expand/Conv2D/fq_weights_1" type="FakeQuantize" version="opset1">
			<data levels="255"/>
			<input>
				<port id="0">
					<dim>288</dim>
					<dim>48</dim>
					<dim>1</dim>
					<dim>1</dim>
				</port>
				<port id="1">
					<dim>1</dim>
				</port>
				<port id="2">
					<dim>1</dim>
				</port>
				<port id="3">
					<dim>288</dim>
					<dim>1</dim>
					<dim>1</dim>
					<dim>1</dim>
				</port>
				<port id="4">
					<dim>288</dim>
					<dim>1</dim>
					<dim>1</dim>
					<dim>1</dim>
				</port>
			</input>
			<output>
				<port id="5" precision="FP16">
					<dim>288</dim>
					<dim>48</dim>
					<dim>1</dim>
					<dim>1</dim>
				</port>
			</output>
		</layer>
		<layer id="289" name="model/block_5_expand/Conv2D" type="Convolution" version="opset1">
			<data auto_pad="same_upper" dilations="1,1" output_padding="0,0" pads_begin="0,0" pads_end="0,0" strides="1,1"/>
			<input>
				<port id="0">
					<dim>1</dim>
					<dim>48</dim>
					<dim>96</dim>
					<dim>160</dim>
				</port>
				<port id="1">
					<dim>288</dim>
					<dim>48</dim>
					<dim>1</dim>
					<dim>1</dim>
				</port>
			</input>
			<output>
				<port id="2" precision="FP16">
					<dim>1</dim>
					<dim>288</dim>
					<dim>96</dim>
					<dim>160</dim>
				</port>
			</output>
		</layer>
		<layer id="290" name="data_add_1175511760/copy_const454_const" type="Const" version="opset1">
			<data element_type="f16" offset="103926" shape="1,288,1,1" size="576"/>
			<output>
				<port id="1" precision="FP16">
					<dim>1</dim>
					<dim>288</dim>
					<dim>1</dim>
					<dim>1</dim>
				</port>
			</output>
		</layer>
		<layer id="291" name="model/block_5_expand_BN/FusedBatchNorm/variance/Fused_Add_" type="Add" version="opset1">
			<input>
				<port id="0">
					<dim>1</dim>
					<dim>288</dim>
					<dim>96</dim>
					<dim>160</dim>
				</port>
				<port id="1">
					<dim>1</dim>
					<dim>288</dim>
					<dim>1</dim>
					<dim>1</dim>
				</port>
			</input>
			<output>
				<port id="2" precision="FP16">
					<dim>1</dim>
					<dim>288</dim>
					<dim>96</dim>
					<dim>160</dim>
				</port>
			</output>
		</layer>
		<layer id="292" name="model/block_5_expand_relu/Relu6" type="Clamp" version="opset1">
			<data max="6" min="0"/>
			<input>
				<port id="0">
					<dim>1</dim>
					<dim>288</dim>
					<dim>96</dim>
					<dim>160</dim>
				</port>
			</input>
			<output>
				<port id="1" precision="FP16">
					<dim>1</dim>
					<dim>288</dim>
					<dim>96</dim>
					<dim>160</dim>
				</port>
			</output>
		</layer>
		<layer id="293" name="26242628_const" type="Const" version="opset1">
			<data element_type="f16" offset="69318" shape="1,288,1,1" size="576"/>
			<output>
				<port id="1" precision="FP16">
					<dim>1</dim>
					<dim>288</dim>
					<dim>1</dim>
					<dim>1</dim>
				</port>
			</output>
		</layer>
		<layer id="294" name="26252629_const" type="Const" version="opset1">
			<data element_type="f16" offset="104502" shape="1,288,1,1" size="576"/>
			<output>
				<port id="1" precision="FP16">
					<dim>1</dim>
					<dim>288</dim>
					<dim>1</dim>
					<dim>1</dim>
				</port>
			</output>
		</layer>
		<layer id="295" name="26262630_const" type="Const" version="opset1">
			<data element_type="f16" offset="69318" shape="1,288,1,1" size="576"/>
			<output>
				<port id="1" precision="FP16">
					<dim>1</dim>
					<dim>288</dim>
					<dim>1</dim>
					<dim>1</dim>
				</port>
			</output>
		</layer>
		<layer id="296" name="26272631_const" type="Const" version="opset1">
			<data element_type="f16" offset="104502" shape="1,288,1,1" size="576"/>
			<output>
				<port id="1" precision="FP16">
					<dim>1</dim>
					<dim>288</dim>
					<dim>1</dim>
					<dim>1</dim>
				</port>
			</output>
		</layer>
		<layer id="297" name="model/block_5_depthwise/depthwise/fq_input_0" type="FakeQuantize" version="opset1">
			<data levels="256"/>
			<input>
				<port id="0">
					<dim>1</dim>
					<dim>288</dim>
					<dim>96</dim>
					<dim>160</dim>
				</port>
				<port id="1">
					<dim>1</dim>
					<dim>288</dim>
					<dim>1</dim>
					<dim>1</dim>
				</port>
				<port id="2">
					<dim>1</dim>
					<dim>288</dim>
					<dim>1</dim>
					<dim>1</dim>
				</port>
				<port id="3">
					<dim>1</dim>
					<dim>288</dim>
					<dim>1</dim>
					<dim>1</dim>
				</port>
				<port id="4">
					<dim>1</dim>
					<dim>288</dim>
					<dim>1</dim>
					<dim>1</dim>
				</port>
			</input>
			<output>
				<port id="5" precision="FP16">
					<dim>1</dim>
					<dim>288</dim>
					<dim>96</dim>
					<dim>160</dim>
				</port>
			</output>
		</layer>
		<layer id="298" name="model/block_5_depthwise/depthwise/fq_weights_1/Convert_to_float/Cast_06404_const" type="Const" version="opset1">
			<data element_type="u8" offset="105078" shape="288,1,3,3" size="2592"/>
			<output>
				<port id="1" precision="U8">
					<dim>288</dim>
					<dim>1</dim>
					<dim>3</dim>
					<dim>3</dim>
				</port>
			</output>
		</layer>
		<layer id="299" name="model/block_5_depthwise/depthwise/fq_weights_1/Convert_to_float" type="Convert" version="opset1">
			<data destination_type="f16"/>
			<input>
				<port id="0">
					<dim>288</dim>
					<dim>1</dim>
					<dim>3</dim>
					<dim>3</dim>
				</port>
			</input>
			<output>
				<port id="1" precision="FP16">
					<dim>288</dim>
					<dim>1</dim>
					<dim>3</dim>
					<dim>3</dim>
				</port>
			</output>
		</layer>
		<layer id="300" name="model/block_5_depthwise/depthwise/fq_weights_1/Copy/out_low5482_const" type="Const" version="opset1">
			<data element_type="f16" offset="1312" shape="1" size="2"/>
			<output>
				<port id="1" precision="FP16">
					<dim>1</dim>
				</port>
			</output>
		</layer>
		<layer id="301" name="model/block_5_depthwise/depthwise/fq_weights_1/Copy/out_high5483_const" type="Const" version="opset1">
			<data element_type="f16" offset="1314" shape="1" size="2"/>
			<output>
				<port id="1" precision="FP16">
					<dim>1</dim>
				</port>
			</output>
		</layer>
		<layer id="302" name="26362640_const" type="Const" version="opset1">
			<data element_type="f16" offset="107670" shape="288,1,1,1" size="576"/>
			<output>
				<port id="1" precision="FP16">
					<dim>288</dim>
					<dim>1</dim>
					<dim>1</dim>
					<dim>1</dim>
				</port>
			</output>
		</layer>
		<layer id="303" name="26372641_const" type="Const" version="opset1">
			<data element_type="f16" offset="108246" shape="288,1,1,1" size="576"/>
			<output>
				<port id="1" precision="FP16">
					<dim>288</dim>
					<dim>1</dim>
					<dim>1</dim>
					<dim>1</dim>
				</port>
			</output>
		</layer>
		<layer id="304" name="model/block_5_depthwise/depthwise/fq_weights_1" type="FakeQuantize" version="opset1">
			<data levels="255"/>
			<input>
				<port id="0">
					<dim>288</dim>
					<dim>1</dim>
					<dim>3</dim>
					<dim>3</dim>
				</port>
				<port id="1">
					<dim>1</dim>
				</port>
				<port id="2">
					<dim>1</dim>
				</port>
				<port id="3">
					<dim>288</dim>
					<dim>1</dim>
					<dim>1</dim>
					<dim>1</dim>
				</port>
				<port id="4">
					<dim>288</dim>
					<dim>1</dim>
					<dim>1</dim>
					<dim>1</dim>
				</port>
			</input>
			<output>
				<port id="5" precision="FP16">
					<dim>288</dim>
					<dim>1</dim>
					<dim>3</dim>
					<dim>3</dim>
				</port>
			</output>
		</layer>
		<layer id="305" name="7223/value7225_const" type="Const" version="opset1">
			<data element_type="i64" offset="74214" shape="5" size="40"/>
			<output>
				<port id="1" precision="I64">
					<dim>5</dim>
				</port>
			</output>
		</layer>
		<layer id="306" name="7223" type="Reshape" version="opset1">
			<data special_zero="True"/>
			<input>
				<port id="0">
					<dim>288</dim>
					<dim>1</dim>
					<dim>3</dim>
					<dim>3</dim>
				</port>
				<port id="1">
					<dim>5</dim>
				</port>
			</input>
			<output>
				<port id="2" precision="FP16">
					<dim>288</dim>
					<dim>1</dim>
					<dim>1</dim>
					<dim>3</dim>
					<dim>3</dim>
				</port>
			</output>
		</layer>
		<layer id="307" name="model/block_5_depthwise/depthwise" type="GroupConvolution" version="opset1">
			<data auto_pad="same_upper" dilations="1,1" output_padding="0,0" pads_begin="0,0" pads_end="0,0" strides="1,1"/>
			<input>
				<port id="0">
					<dim>1</dim>
					<dim>288</dim>
					<dim>96</dim>
					<dim>160</dim>
				</port>
				<port id="1">
					<dim>288</dim>
					<dim>1</dim>
					<dim>1</dim>
					<dim>3</dim>
					<dim>3</dim>
				</port>
			</input>
			<output>
				<port id="2" precision="FP16">
					<dim>1</dim>
					<dim>288</dim>
					<dim>96</dim>
					<dim>160</dim>
				</port>
			</output>
		</layer>
		<layer id="308" name="data_add_1176311768/copy_const459_const" type="Const" version="opset1">
			<data element_type="f16" offset="108822" shape="1,288,1,1" size="576"/>
			<output>
				<port id="1" precision="FP16">
					<dim>1</dim>
					<dim>288</dim>
					<dim>1</dim>
					<dim>1</dim>
				</port>
			</output>
		</layer>
		<layer id="309" name="model/block_5_depthwise_BN/FusedBatchNorm/variance/Fused_Add_" type="Add" version="opset1">
			<input>
				<port id="0">
					<dim>1</dim>
					<dim>288</dim>
					<dim>96</dim>
					<dim>160</dim>
				</port>
				<port id="1">
					<dim>1</dim>
					<dim>288</dim>
					<dim>1</dim>
					<dim>1</dim>
				</port>
			</input>
			<output>
				<port id="2" precision="FP16">
					<dim>1</dim>
					<dim>288</dim>
					<dim>96</dim>
					<dim>160</dim>
				</port>
			</output>
		</layer>
		<layer id="310" name="model/block_5_depthwise_relu/Relu6" type="Clamp" version="opset1">
			<data max="6" min="0"/>
			<input>
				<port id="0">
					<dim>1</dim>
					<dim>288</dim>
					<dim>96</dim>
					<dim>160</dim>
				</port>
			</input>
			<output>
				<port id="1" precision="FP16">
					<dim>1</dim>
					<dim>288</dim>
					<dim>96</dim>
					<dim>160</dim>
				</port>
			</output>
		</layer>
		<layer id="311" name="19741978_const" type="Const" version="opset1">
			<data element_type="f16" offset="1312" shape="" size="2"/>
			<output>
				<port id="1" precision="FP16"/>
			</output>
		</layer>
		<layer id="312" name="19751979_const" type="Const" version="opset1">
			<data element_type="f16" offset="2556" shape="" size="2"/>
			<output>
				<port id="1" precision="FP16"/>
			</output>
		</layer>
		<layer id="313" name="19761980_const" type="Const" version="opset1">
			<data element_type="f16" offset="1312" shape="" size="2"/>
			<output>
				<port id="1" precision="FP16"/>
			</output>
		</layer>
		<layer id="314" name="19771981_const" type="Const" version="opset1">
			<data element_type="f16" offset="2556" shape="" size="2"/>
			<output>
				<port id="1" precision="FP16"/>
			</output>
		</layer>
		<layer id="315" name="model/block_5_project/Conv2D/fq_input_0" type="FakeQuantize" version="opset1">
			<data levels="256"/>
			<input>
				<port id="0">
					<dim>1</dim>
					<dim>288</dim>
					<dim>96</dim>
					<dim>160</dim>
				</port>
				<port id="1"/>
				<port id="2"/>
				<port id="3"/>
				<port id="4"/>
			</input>
			<output>
				<port id="5" precision="FP16">
					<dim>1</dim>
					<dim>288</dim>
					<dim>96</dim>
					<dim>160</dim>
				</port>
			</output>
		</layer>
		<layer id="316" name="model/block_5_project/Conv2D/fq_weights_1/Convert_to_float/Cast_06478_const" type="Const" version="opset1">
			<data element_type="u8" offset="109398" shape="48,288,1,1" size="13824"/>
			<output>
				<port id="1" precision="U8">
					<dim>48</dim>
					<dim>288</dim>
					<dim>1</dim>
					<dim>1</dim>
				</port>
			</output>
		</layer>
		<layer id="317" name="model/block_5_project/Conv2D/fq_weights_1/Convert_to_float" type="Convert" version="opset1">
			<data destination_type="f16"/>
			<input>
				<port id="0">
					<dim>48</dim>
					<dim>288</dim>
					<dim>1</dim>
					<dim>1</dim>
				</port>
			</input>
			<output>
				<port id="1" precision="FP16">
					<dim>48</dim>
					<dim>288</dim>
					<dim>1</dim>
					<dim>1</dim>
				</port>
			</output>
		</layer>
		<layer id="318" name="model/block_5_project/Conv2D/fq_weights_1/Copy/out_low5306_const" type="Const" version="opset1">
			<data element_type="f16" offset="1312" shape="1" size="2"/>
			<output>
				<port id="1" precision="FP16">
					<dim>1</dim>
				</port>
			</output>
		</layer>
		<layer id="319" name="model/block_5_project/Conv2D/fq_weights_1/Copy/out_high5307_const" type="Const" version="opset1">
			<data element_type="f16" offset="1314" shape="1" size="2"/>
			<output>
				<port id="1" precision="FP16">
					<dim>1</dim>
				</port>
			</output>
		</layer>
		<layer id="320" name="19861990_const" type="Const" version="opset1">
			<data element_type="f16" offset="123222" shape="48,1,1,1" size="96"/>
			<output>
				<port id="1" precision="FP16">
					<dim>48</dim>
					<dim>1</dim>
					<dim>1</dim>
					<dim>1</dim>
				</port>
			</output>
		</layer>
		<layer id="321" name="19871991_const" type="Const" version="opset1">
			<data element_type="f16" offset="123318" shape="48,1,1,1" size="96"/>
			<output>
				<port id="1" precision="FP16">
					<dim>48</dim>
					<dim>1</dim>
					<dim>1</dim>
					<dim>1</dim>
				</port>
			</output>
		</layer>
		<layer id="322" name="model/block_5_project/Conv2D/fq_weights_1" type="FakeQuantize" version="opset1">
			<data levels="255"/>
			<input>
				<port id="0">
					<dim>48</dim>
					<dim>288</dim>
					<dim>1</dim>
					<dim>1</dim>
				</port>
				<port id="1">
					<dim>1</dim>
				</port>
				<port id="2">
					<dim>1</dim>
				</port>
				<port id="3">
					<dim>48</dim>
					<dim>1</dim>
					<dim>1</dim>
					<dim>1</dim>
				</port>
				<port id="4">
					<dim>48</dim>
					<dim>1</dim>
					<dim>1</dim>
					<dim>1</dim>
				</port>
			</input>
			<output>
				<port id="5" precision="FP16">
					<dim>48</dim>
					<dim>288</dim>
					<dim>1</dim>
					<dim>1</dim>
				</port>
			</output>
		</layer>
		<layer id="323" name="model/block_5_project/Conv2D" type="Convolution" version="opset1">
			<data auto_pad="same_upper" dilations="1,1" output_padding="0,0" pads_begin="0,0" pads_end="0,0" strides="1,1"/>
			<input>
				<port id="0">
					<dim>1</dim>
					<dim>288</dim>
					<dim>96</dim>
					<dim>160</dim>
				</port>
				<port id="1">
					<dim>48</dim>
					<dim>288</dim>
					<dim>1</dim>
					<dim>1</dim>
				</port>
			</input>
			<output>
				<port id="2" precision="FP16">
					<dim>1</dim>
					<dim>48</dim>
					<dim>96</dim>
					<dim>160</dim>
				</port>
			</output>
		</layer>
		<layer id="324" name="data_add_1177111776/copy_const464_const" type="Const" version="opset1">
			<data element_type="f16" offset="123414" shape="1,48,1,1" size="96"/>
			<output>
				<port id="1" precision="FP16">
					<dim>1</dim>
					<dim>48</dim>
					<dim>1</dim>
					<dim>1</dim>
				</port>
			</output>
		</layer>
		<layer id="325" name="model/block_5_project_BN/FusedBatchNorm/variance/Fused_Add_" type="Add" version="opset1">
			<input>
				<port id="0">
					<dim>1</dim>
					<dim>48</dim>
					<dim>96</dim>
					<dim>160</dim>
				</port>
				<port id="1">
					<dim>1</dim>
					<dim>48</dim>
					<dim>1</dim>
					<dim>1</dim>
				</port>
			</input>
			<output>
				<port id="2" precision="FP16">
					<dim>1</dim>
					<dim>48</dim>
					<dim>96</dim>
					<dim>160</dim>
				</port>
			</output>
		</layer>
		<layer id="326" name="20042008_const" type="Const" version="opset1">
			<data element_type="f16" offset="123510" shape="" size="2"/>
			<output>
				<port id="1" precision="FP16"/>
			</output>
		</layer>
		<layer id="327" name="20052009_const" type="Const" version="opset1">
			<data element_type="f16" offset="123512" shape="" size="2"/>
			<output>
				<port id="1" precision="FP16"/>
			</output>
		</layer>
		<layer id="328" name="20062010_const" type="Const" version="opset1">
			<data element_type="f16" offset="123510" shape="" size="2"/>
			<output>
				<port id="1" precision="FP16"/>
			</output>
		</layer>
		<layer id="329" name="20072011_const" type="Const" version="opset1">
			<data element_type="f16" offset="123512" shape="" size="2"/>
			<output>
				<port id="1" precision="FP16"/>
			</output>
		</layer>
		<layer id="330" name="model/block_5_add/add/fq_input_1" type="FakeQuantize" version="opset1">
			<data levels="256"/>
			<input>
				<port id="0">
					<dim>1</dim>
					<dim>48</dim>
					<dim>96</dim>
					<dim>160</dim>
				</port>
				<port id="1"/>
				<port id="2"/>
				<port id="3"/>
				<port id="4"/>
			</input>
			<output>
				<port id="5" precision="FP16">
					<dim>1</dim>
					<dim>48</dim>
					<dim>96</dim>
					<dim>160</dim>
				</port>
			</output>
		</layer>
		<layer id="331" name="model/block_5_add/add" type="Add" version="opset1">
			<input>
				<port id="0">
					<dim>1</dim>
					<dim>48</dim>
					<dim>96</dim>
					<dim>160</dim>
				</port>
				<port id="1">
					<dim>1</dim>
					<dim>48</dim>
					<dim>96</dim>
					<dim>160</dim>
				</port>
			</input>
			<output>
				<port id="2" precision="FP16">
					<dim>1</dim>
					<dim>48</dim>
					<dim>96</dim>
					<dim>160</dim>
				</port>
			</output>
		</layer>
		<layer id="332" name="19141918_const" type="Const" version="opset1">
			<data element_type="f16" offset="123514" shape="" size="2"/>
			<output>
				<port id="1" precision="FP16"/>
			</output>
		</layer>
		<layer id="333" name="19151919_const" type="Const" version="opset1">
			<data element_type="f16" offset="123516" shape="" size="2"/>
			<output>
				<port id="1" precision="FP16"/>
			</output>
		</layer>
		<layer id="334" name="19161920_const" type="Const" version="opset1">
			<data element_type="f16" offset="123514" shape="" size="2"/>
			<output>
				<port id="1" precision="FP16"/>
			</output>
		</layer>
		<layer id="335" name="19171921_const" type="Const" version="opset1">
			<data element_type="f16" offset="123516" shape="" size="2"/>
			<output>
				<port id="1" precision="FP16"/>
			</output>
		</layer>
		<layer id="336" name="model/block_6_expand/Conv2D/fq_input_0" type="FakeQuantize" version="opset1">
			<data levels="256"/>
			<input>
				<port id="0">
					<dim>1</dim>
					<dim>48</dim>
					<dim>96</dim>
					<dim>160</dim>
				</port>
				<port id="1"/>
				<port id="2"/>
				<port id="3"/>
				<port id="4"/>
			</input>
			<output>
				<port id="5" precision="FP16">
					<dim>1</dim>
					<dim>48</dim>
					<dim>96</dim>
					<dim>160</dim>
				</port>
			</output>
		</layer>
		<layer id="337" name="model/conv2d_6/Conv2D/fq_weights_1/Convert_to_float/Cast_06452_const" type="Const" version="opset1">
			<data element_type="u8" offset="123518" shape="16,48,1,1" size="768"/>
			<output>
				<port id="1" precision="U8">
					<dim>16</dim>
					<dim>48</dim>
					<dim>1</dim>
					<dim>1</dim>
				</port>
			</output>
		</layer>
		<layer id="338" name="model/conv2d_6/Conv2D/fq_weights_1/Convert_to_float" type="Convert" version="opset1">
			<data destination_type="f16"/>
			<input>
				<port id="0">
					<dim>16</dim>
					<dim>48</dim>
					<dim>1</dim>
					<dim>1</dim>
				</port>
			</input>
			<output>
				<port id="1" precision="FP16">
					<dim>16</dim>
					<dim>48</dim>
					<dim>1</dim>
					<dim>1</dim>
				</port>
			</output>
		</layer>
		<layer id="339" name="model/conv2d_6/Conv2D/fq_weights_1/Copy/out_low5506_const" type="Const" version="opset1">
			<data element_type="f16" offset="1312" shape="1" size="2"/>
			<output>
				<port id="1" precision="FP16">
					<dim>1</dim>
				</port>
			</output>
		</layer>
		<layer id="340" name="model/conv2d_6/Conv2D/fq_weights_1/Copy/out_high5507_const" type="Const" version="opset1">
			<data element_type="f16" offset="1314" shape="1" size="2"/>
			<output>
				<port id="1" precision="FP16">
					<dim>1</dim>
				</port>
			</output>
		</layer>
		<layer id="341" name="27162720_const" type="Const" version="opset1">
			<data element_type="f16" offset="124286" shape="16,1,1,1" size="32"/>
			<output>
				<port id="1" precision="FP16">
					<dim>16</dim>
					<dim>1</dim>
					<dim>1</dim>
					<dim>1</dim>
				</port>
			</output>
		</layer>
		<layer id="342" name="27172721_const" type="Const" version="opset1">
			<data element_type="f16" offset="124318" shape="16,1,1,1" size="32"/>
			<output>
				<port id="1" precision="FP16">
					<dim>16</dim>
					<dim>1</dim>
					<dim>1</dim>
					<dim>1</dim>
				</port>
			</output>
		</layer>
		<layer id="343" name="model/conv2d_6/Conv2D/fq_weights_1" type="FakeQuantize" version="opset1">
			<data levels="255"/>
			<input>
				<port id="0">
					<dim>16</dim>
					<dim>48</dim>
					<dim>1</dim>
					<dim>1</dim>
				</port>
				<port id="1">
					<dim>1</dim>
				</port>
				<port id="2">
					<dim>1</dim>
				</port>
				<port id="3">
					<dim>16</dim>
					<dim>1</dim>
					<dim>1</dim>
					<dim>1</dim>
				</port>
				<port id="4">
					<dim>16</dim>
					<dim>1</dim>
					<dim>1</dim>
					<dim>1</dim>
				</port>
			</input>
			<output>
				<port id="5" precision="FP16">
					<dim>16</dim>
					<dim>48</dim>
					<dim>1</dim>
					<dim>1</dim>
				</port>
			</output>
		</layer>
		<layer id="344" name="model/conv2d_6/Conv2D" type="Convolution" version="opset1">
			<data auto_pad="valid" dilations="1,1" output_padding="0,0" pads_begin="0,0" pads_end="0,0" strides="1,1"/>
			<input>
				<port id="0">
					<dim>1</dim>
					<dim>48</dim>
					<dim>96</dim>
					<dim>160</dim>
				</port>
				<port id="1">
					<dim>16</dim>
					<dim>48</dim>
					<dim>1</dim>
					<dim>1</dim>
				</port>
			</input>
			<output>
				<port id="2" precision="FP16">
					<dim>1</dim>
					<dim>16</dim>
					<dim>96</dim>
					<dim>160</dim>
				</port>
			</output>
		</layer>
		<layer id="345" name="model/conv2d_6/BiasAdd/ReadVariableOp/Output_0/Data_/copy_const469_const" type="Const" version="opset1">
			<data element_type="f16" offset="124350" shape="1,16,1,1" size="32"/>
			<output>
				<port id="1" precision="FP16">
					<dim>1</dim>
					<dim>16</dim>
					<dim>1</dim>
					<dim>1</dim>
				</port>
			</output>
		</layer>
		<layer id="346" name="model/conv2d_6/BiasAdd/Add" type="Add" version="opset1">
			<input>
				<port id="0">
					<dim>1</dim>
					<dim>16</dim>
					<dim>96</dim>
					<dim>160</dim>
				</port>
				<port id="1">
					<dim>1</dim>
					<dim>16</dim>
					<dim>1</dim>
					<dim>1</dim>
				</port>
			</input>
			<output>
				<port id="2" precision="FP16">
					<dim>1</dim>
					<dim>16</dim>
					<dim>96</dim>
					<dim>160</dim>
				</port>
			</output>
		</layer>
		<layer id="347" name="17341738_const" type="Const" version="opset1">
			<data element_type="f16" offset="124382" shape="" size="2"/>
			<output>
				<port id="1" precision="FP16"/>
			</output>
		</layer>
		<layer id="348" name="17351739_const" type="Const" version="opset1">
			<data element_type="f16" offset="124384" shape="" size="2"/>
			<output>
				<port id="1" precision="FP16"/>
			</output>
		</layer>
		<layer id="349" name="17361740_const" type="Const" version="opset1">
			<data element_type="f16" offset="124382" shape="" size="2"/>
			<output>
				<port id="1" precision="FP16"/>
			</output>
		</layer>
		<layer id="350" name="17371741_const" type="Const" version="opset1">
			<data element_type="f16" offset="124384" shape="" size="2"/>
			<output>
				<port id="1" precision="FP16"/>
			</output>
		</layer>
		<layer id="351" name="model/add_3/add/fq_input_0" type="FakeQuantize" version="opset1">
			<data levels="256"/>
			<input>
				<port id="0">
					<dim>1</dim>
					<dim>16</dim>
					<dim>96</dim>
					<dim>160</dim>
				</port>
				<port id="1"/>
				<port id="2"/>
				<port id="3"/>
				<port id="4"/>
			</input>
			<output>
				<port id="5" precision="FP16">
					<dim>1</dim>
					<dim>16</dim>
					<dim>96</dim>
					<dim>160</dim>
				</port>
			</output>
		</layer>
		<layer id="352" name="model/block_6_expand/Conv2D/fq_weights_1/Convert_to_float/Cast_06440_const" type="Const" version="opset1">
			<data element_type="u8" offset="124386" shape="288,48,1,1" size="13824"/>
			<output>
				<port id="1" precision="U8">
					<dim>288</dim>
					<dim>48</dim>
					<dim>1</dim>
					<dim>1</dim>
				</port>
			</output>
		</layer>
		<layer id="353" name="model/block_6_expand/Conv2D/fq_weights_1/Convert_to_float" type="Convert" version="opset1">
			<data destination_type="f16"/>
			<input>
				<port id="0">
					<dim>288</dim>
					<dim>48</dim>
					<dim>1</dim>
					<dim>1</dim>
				</port>
			</input>
			<output>
				<port id="1" precision="FP16">
					<dim>288</dim>
					<dim>48</dim>
					<dim>1</dim>
					<dim>1</dim>
				</port>
			</output>
		</layer>
		<layer id="354" name="model/block_6_expand/Conv2D/fq_weights_1/Copy/out_low5426_const" type="Const" version="opset1">
			<data element_type="f16" offset="1312" shape="1" size="2"/>
			<output>
				<port id="1" precision="FP16">
					<dim>1</dim>
				</port>
			</output>
		</layer>
		<layer id="355" name="model/block_6_expand/Conv2D/fq_weights_1/Copy/out_high5427_const" type="Const" version="opset1">
			<data element_type="f16" offset="1314" shape="1" size="2"/>
			<output>
				<port id="1" precision="FP16">
					<dim>1</dim>
				</port>
			</output>
		</layer>
		<layer id="356" name="19261930_const" type="Const" version="opset1">
			<data element_type="f16" offset="138210" shape="288,1,1,1" size="576"/>
			<output>
				<port id="1" precision="FP16">
					<dim>288</dim>
					<dim>1</dim>
					<dim>1</dim>
					<dim>1</dim>
				</port>
			</output>
		</layer>
		<layer id="357" name="19271931_const" type="Const" version="opset1">
			<data element_type="f16" offset="138786" shape="288,1,1,1" size="576"/>
			<output>
				<port id="1" precision="FP16">
					<dim>288</dim>
					<dim>1</dim>
					<dim>1</dim>
					<dim>1</dim>
				</port>
			</output>
		</layer>
		<layer id="358" name="model/block_6_expand/Conv2D/fq_weights_1" type="FakeQuantize" version="opset1">
			<data levels="255"/>
			<input>
				<port id="0">
					<dim>288</dim>
					<dim>48</dim>
					<dim>1</dim>
					<dim>1</dim>
				</port>
				<port id="1">
					<dim>1</dim>
				</port>
				<port id="2">
					<dim>1</dim>
				</port>
				<port id="3">
					<dim>288</dim>
					<dim>1</dim>
					<dim>1</dim>
					<dim>1</dim>
				</port>
				<port id="4">
					<dim>288</dim>
					<dim>1</dim>
					<dim>1</dim>
					<dim>1</dim>
				</port>
			</input>
			<output>
				<port id="5" precision="FP16">
					<dim>288</dim>
					<dim>48</dim>
					<dim>1</dim>
					<dim>1</dim>
				</port>
			</output>
		</layer>
		<layer id="359" name="model/block_6_expand/Conv2D" type="Convolution" version="opset1">
			<data auto_pad="same_upper" dilations="1,1" output_padding="0,0" pads_begin="0,0" pads_end="0,0" strides="1,1"/>
			<input>
				<port id="0">
					<dim>1</dim>
					<dim>48</dim>
					<dim>96</dim>
					<dim>160</dim>
				</port>
				<port id="1">
					<dim>288</dim>
					<dim>48</dim>
					<dim>1</dim>
					<dim>1</dim>
				</port>
			</input>
			<output>
				<port id="2" precision="FP16">
					<dim>1</dim>
					<dim>288</dim>
					<dim>96</dim>
					<dim>160</dim>
				</port>
			</output>
		</layer>
		<layer id="360" name="data_add_1177911784/copy_const473_const" type="Const" version="opset1">
			<data element_type="f16" offset="139362" shape="1,288,1,1" size="576"/>
			<output>
				<port id="1" precision="FP16">
					<dim>1</dim>
					<dim>288</dim>
					<dim>1</dim>
					<dim>1</dim>
				</port>
			</output>
		</layer>
		<layer id="361" name="model/block_6_expand_BN/FusedBatchNorm/variance/Fused_Add_" type="Add" version="opset1">
			<input>
				<port id="0">
					<dim>1</dim>
					<dim>288</dim>
					<dim>96</dim>
					<dim>160</dim>
				</port>
				<port id="1">
					<dim>1</dim>
					<dim>288</dim>
					<dim>1</dim>
					<dim>1</dim>
				</port>
			</input>
			<output>
				<port id="2" precision="FP16">
					<dim>1</dim>
					<dim>288</dim>
					<dim>96</dim>
					<dim>160</dim>
				</port>
			</output>
		</layer>
		<layer id="362" name="model/block_6_expand_relu/Relu6" type="Clamp" version="opset1">
			<data max="6" min="0"/>
			<input>
				<port id="0">
					<dim>1</dim>
					<dim>288</dim>
					<dim>96</dim>
					<dim>160</dim>
				</port>
			</input>
			<output>
				<port id="1" precision="FP16">
					<dim>1</dim>
					<dim>288</dim>
					<dim>96</dim>
					<dim>160</dim>
				</port>
			</output>
		</layer>
		<layer id="363" name="27242728_const" type="Const" version="opset1">
			<data element_type="f16" offset="69318" shape="1,288,1,1" size="576"/>
			<output>
				<port id="1" precision="FP16">
					<dim>1</dim>
					<dim>288</dim>
					<dim>1</dim>
					<dim>1</dim>
				</port>
			</output>
		</layer>
		<layer id="364" name="27252729_const" type="Const" version="opset1">
			<data element_type="f16" offset="139938" shape="1,288,1,1" size="576"/>
			<output>
				<port id="1" precision="FP16">
					<dim>1</dim>
					<dim>288</dim>
					<dim>1</dim>
					<dim>1</dim>
				</port>
			</output>
		</layer>
		<layer id="365" name="27262730_const" type="Const" version="opset1">
			<data element_type="f16" offset="69318" shape="1,288,1,1" size="576"/>
			<output>
				<port id="1" precision="FP16">
					<dim>1</dim>
					<dim>288</dim>
					<dim>1</dim>
					<dim>1</dim>
				</port>
			</output>
		</layer>
		<layer id="366" name="27272731_const" type="Const" version="opset1">
			<data element_type="f16" offset="139938" shape="1,288,1,1" size="576"/>
			<output>
				<port id="1" precision="FP16">
					<dim>1</dim>
					<dim>288</dim>
					<dim>1</dim>
					<dim>1</dim>
				</port>
			</output>
		</layer>
		<layer id="367" name="model/block_6_depthwise/depthwise/fq_input_0" type="FakeQuantize" version="opset1">
			<data levels="256"/>
			<input>
				<port id="0">
					<dim>1</dim>
					<dim>288</dim>
					<dim>96</dim>
					<dim>160</dim>
				</port>
				<port id="1">
					<dim>1</dim>
					<dim>288</dim>
					<dim>1</dim>
					<dim>1</dim>
				</port>
				<port id="2">
					<dim>1</dim>
					<dim>288</dim>
					<dim>1</dim>
					<dim>1</dim>
				</port>
				<port id="3">
					<dim>1</dim>
					<dim>288</dim>
					<dim>1</dim>
					<dim>1</dim>
				</port>
				<port id="4">
					<dim>1</dim>
					<dim>288</dim>
					<dim>1</dim>
					<dim>1</dim>
				</port>
			</input>
			<output>
				<port id="5" precision="FP16">
					<dim>1</dim>
					<dim>288</dim>
					<dim>96</dim>
					<dim>160</dim>
				</port>
			</output>
		</layer>
		<layer id="368" name="model/block_6_depthwise/depthwise/fq_weights_1/Convert_to_float/Cast_06378_const" type="Const" version="opset1">
			<data element_type="u8" offset="140514" shape="288,1,3,3" size="2592"/>
			<output>
				<port id="1" precision="U8">
					<dim>288</dim>
					<dim>1</dim>
					<dim>3</dim>
					<dim>3</dim>
				</port>
			</output>
		</layer>
		<layer id="369" name="model/block_6_depthwise/depthwise/fq_weights_1/Convert_to_float" type="Convert" version="opset1">
			<data destination_type="f16"/>
			<input>
				<port id="0">
					<dim>288</dim>
					<dim>1</dim>
					<dim>3</dim>
					<dim>3</dim>
				</port>
			</input>
			<output>
				<port id="1" precision="FP16">
					<dim>288</dim>
					<dim>1</dim>
					<dim>3</dim>
					<dim>3</dim>
				</port>
			</output>
		</layer>
		<layer id="370" name="model/block_6_depthwise/depthwise/fq_weights_1/Copy/out_low5370_const" type="Const" version="opset1">
			<data element_type="f16" offset="1312" shape="1" size="2"/>
			<output>
				<port id="1" precision="FP16">
					<dim>1</dim>
				</port>
			</output>
		</layer>
		<layer id="371" name="model/block_6_depthwise/depthwise/fq_weights_1/Copy/out_high5371_const" type="Const" version="opset1">
			<data element_type="f16" offset="1314" shape="1" size="2"/>
			<output>
				<port id="1" precision="FP16">
					<dim>1</dim>
				</port>
			</output>
		</layer>
		<layer id="372" name="27362740_const" type="Const" version="opset1">
			<data element_type="f16" offset="143106" shape="288,1,1,1" size="576"/>
			<output>
				<port id="1" precision="FP16">
					<dim>288</dim>
					<dim>1</dim>
					<dim>1</dim>
					<dim>1</dim>
				</port>
			</output>
		</layer>
		<layer id="373" name="27372741_const" type="Const" version="opset1">
			<data element_type="f16" offset="143682" shape="288,1,1,1" size="576"/>
			<output>
				<port id="1" precision="FP16">
					<dim>288</dim>
					<dim>1</dim>
					<dim>1</dim>
					<dim>1</dim>
				</port>
			</output>
		</layer>
		<layer id="374" name="model/block_6_depthwise/depthwise/fq_weights_1" type="FakeQuantize" version="opset1">
			<data levels="255"/>
			<input>
				<port id="0">
					<dim>288</dim>
					<dim>1</dim>
					<dim>3</dim>
					<dim>3</dim>
				</port>
				<port id="1">
					<dim>1</dim>
				</port>
				<port id="2">
					<dim>1</dim>
				</port>
				<port id="3">
					<dim>288</dim>
					<dim>1</dim>
					<dim>1</dim>
					<dim>1</dim>
				</port>
				<port id="4">
					<dim>288</dim>
					<dim>1</dim>
					<dim>1</dim>
					<dim>1</dim>
				</port>
			</input>
			<output>
				<port id="5" precision="FP16">
					<dim>288</dim>
					<dim>1</dim>
					<dim>3</dim>
					<dim>3</dim>
				</port>
			</output>
		</layer>
		<layer id="375" name="7243/value7245_const" type="Const" version="opset1">
			<data element_type="i64" offset="74214" shape="5" size="40"/>
			<output>
				<port id="1" precision="I64">
					<dim>5</dim>
				</port>
			</output>
		</layer>
		<layer id="376" name="7243" type="Reshape" version="opset1">
			<data special_zero="True"/>
			<input>
				<port id="0">
					<dim>288</dim>
					<dim>1</dim>
					<dim>3</dim>
					<dim>3</dim>
				</port>
				<port id="1">
					<dim>5</dim>
				</port>
			</input>
			<output>
				<port id="2" precision="FP16">
					<dim>288</dim>
					<dim>1</dim>
					<dim>1</dim>
					<dim>3</dim>
					<dim>3</dim>
				</port>
			</output>
		</layer>
		<layer id="377" name="model/block_6_depthwise/depthwise" type="GroupConvolution" version="opset1">
			<data dilations="1,1" output_padding="0,0" pads_begin="0,0" pads_end="1,1" strides="2,2"/>
			<input>
				<port id="0">
					<dim>1</dim>
					<dim>288</dim>
					<dim>96</dim>
					<dim>160</dim>
				</port>
				<port id="1">
					<dim>288</dim>
					<dim>1</dim>
					<dim>1</dim>
					<dim>3</dim>
					<dim>3</dim>
				</port>
			</input>
			<output>
				<port id="2" precision="FP16">
					<dim>1</dim>
					<dim>288</dim>
					<dim>48</dim>
					<dim>80</dim>
				</port>
			</output>
		</layer>
		<layer id="378" name="data_add_1178711792/copy_const478_const" type="Const" version="opset1">
			<data element_type="f16" offset="144258" shape="1,288,1,1" size="576"/>
			<output>
				<port id="1" precision="FP16">
					<dim>1</dim>
					<dim>288</dim>
					<dim>1</dim>
					<dim>1</dim>
				</port>
			</output>
		</layer>
		<layer id="379" name="model/block_6_depthwise_BN/FusedBatchNorm/variance/Fused_Add_" type="Add" version="opset1">
			<input>
				<port id="0">
					<dim>1</dim>
					<dim>288</dim>
					<dim>48</dim>
					<dim>80</dim>
				</port>
				<port id="1">
					<dim>1</dim>
					<dim>288</dim>
					<dim>1</dim>
					<dim>1</dim>
				</port>
			</input>
			<output>
				<port id="2" precision="FP16">
					<dim>1</dim>
					<dim>288</dim>
					<dim>48</dim>
					<dim>80</dim>
				</port>
			</output>
		</layer>
		<layer id="380" name="model/block_6_depthwise_relu/Relu6" type="Clamp" version="opset1">
			<data max="6" min="0"/>
			<input>
				<port id="0">
					<dim>1</dim>
					<dim>288</dim>
					<dim>48</dim>
					<dim>80</dim>
				</port>
			</input>
			<output>
				<port id="1" precision="FP16">
					<dim>1</dim>
					<dim>288</dim>
					<dim>48</dim>
					<dim>80</dim>
				</port>
			</output>
		</layer>
		<layer id="381" name="22242228_const" type="Const" version="opset1">
			<data element_type="f16" offset="1312" shape="" size="2"/>
			<output>
				<port id="1" precision="FP16"/>
			</output>
		</layer>
		<layer id="382" name="22252229_const" type="Const" version="opset1">
			<data element_type="f16" offset="2556" shape="" size="2"/>
			<output>
				<port id="1" precision="FP16"/>
			</output>
		</layer>
		<layer id="383" name="22262230_const" type="Const" version="opset1">
			<data element_type="f16" offset="1312" shape="" size="2"/>
			<output>
				<port id="1" precision="FP16"/>
			</output>
		</layer>
		<layer id="384" name="22272231_const" type="Const" version="opset1">
			<data element_type="f16" offset="2556" shape="" size="2"/>
			<output>
				<port id="1" precision="FP16"/>
			</output>
		</layer>
		<layer id="385" name="model/block_6_project/Conv2D/fq_input_0" type="FakeQuantize" version="opset1">
			<data levels="256"/>
			<input>
				<port id="0">
					<dim>1</dim>
					<dim>288</dim>
					<dim>48</dim>
					<dim>80</dim>
				</port>
				<port id="1"/>
				<port id="2"/>
				<port id="3"/>
				<port id="4"/>
			</input>
			<output>
				<port id="5" precision="FP16">
					<dim>1</dim>
					<dim>288</dim>
					<dim>48</dim>
					<dim>80</dim>
				</port>
			</output>
		</layer>
		<layer id="386" name="model/block_6_project/Conv2D/fq_weights_1/Convert_to_float/Cast_06448_const" type="Const" version="opset1">
			<data element_type="u8" offset="144834" shape="88,288,1,1" size="25344"/>
			<output>
				<port id="1" precision="U8">
					<dim>88</dim>
					<dim>288</dim>
					<dim>1</dim>
					<dim>1</dim>
				</port>
			</output>
		</layer>
		<layer id="387" name="model/block_6_project/Conv2D/fq_weights_1/Convert_to_float" type="Convert" version="opset1">
			<data destination_type="f16"/>
			<input>
				<port id="0">
					<dim>88</dim>
					<dim>288</dim>
					<dim>1</dim>
					<dim>1</dim>
				</port>
			</input>
			<output>
				<port id="1" precision="FP16">
					<dim>88</dim>
					<dim>288</dim>
					<dim>1</dim>
					<dim>1</dim>
				</port>
			</output>
		</layer>
		<layer id="388" name="model/block_6_project/Conv2D/fq_weights_1/Copy/out_low5138_const" type="Const" version="opset1">
			<data element_type="f16" offset="1312" shape="1" size="2"/>
			<output>
				<port id="1" precision="FP16">
					<dim>1</dim>
				</port>
			</output>
		</layer>
		<layer id="389" name="model/block_6_project/Conv2D/fq_weights_1/Copy/out_high5139_const" type="Const" version="opset1">
			<data element_type="f16" offset="1314" shape="1" size="2"/>
			<output>
				<port id="1" precision="FP16">
					<dim>1</dim>
				</port>
			</output>
		</layer>
		<layer id="390" name="22362240_const" type="Const" version="opset1">
			<data element_type="f16" offset="170178" shape="88,1,1,1" size="176"/>
			<output>
				<port id="1" precision="FP16">
					<dim>88</dim>
					<dim>1</dim>
					<dim>1</dim>
					<dim>1</dim>
				</port>
			</output>
		</layer>
		<layer id="391" name="22372241_const" type="Const" version="opset1">
			<data element_type="f16" offset="170354" shape="88,1,1,1" size="176"/>
			<output>
				<port id="1" precision="FP16">
					<dim>88</dim>
					<dim>1</dim>
					<dim>1</dim>
					<dim>1</dim>
				</port>
			</output>
		</layer>
		<layer id="392" name="model/block_6_project/Conv2D/fq_weights_1" type="FakeQuantize" version="opset1">
			<data levels="255"/>
			<input>
				<port id="0">
					<dim>88</dim>
					<dim>288</dim>
					<dim>1</dim>
					<dim>1</dim>
				</port>
				<port id="1">
					<dim>1</dim>
				</port>
				<port id="2">
					<dim>1</dim>
				</port>
				<port id="3">
					<dim>88</dim>
					<dim>1</dim>
					<dim>1</dim>
					<dim>1</dim>
				</port>
				<port id="4">
					<dim>88</dim>
					<dim>1</dim>
					<dim>1</dim>
					<dim>1</dim>
				</port>
			</input>
			<output>
				<port id="5" precision="FP16">
					<dim>88</dim>
					<dim>288</dim>
					<dim>1</dim>
					<dim>1</dim>
				</port>
			</output>
		</layer>
		<layer id="393" name="model/block_6_project/Conv2D" type="Convolution" version="opset1">
			<data auto_pad="same_upper" dilations="1,1" output_padding="0,0" pads_begin="0,0" pads_end="0,0" strides="1,1"/>
			<input>
				<port id="0">
					<dim>1</dim>
					<dim>288</dim>
					<dim>48</dim>
					<dim>80</dim>
				</port>
				<port id="1">
					<dim>88</dim>
					<dim>288</dim>
					<dim>1</dim>
					<dim>1</dim>
				</port>
			</input>
			<output>
				<port id="2" precision="FP16">
					<dim>1</dim>
					<dim>88</dim>
					<dim>48</dim>
					<dim>80</dim>
				</port>
			</output>
		</layer>
		<layer id="394" name="data_add_1179511800/copy_const483_const" type="Const" version="opset1">
			<data element_type="f16" offset="170530" shape="1,88,1,1" size="176"/>
			<output>
				<port id="1" precision="FP16">
					<dim>1</dim>
					<dim>88</dim>
					<dim>1</dim>
					<dim>1</dim>
				</port>
			</output>
		</layer>
		<layer id="395" name="model/block_6_project_BN/FusedBatchNorm/variance/Fused_Add_" type="Add" version="opset1">
			<input>
				<port id="0">
					<dim>1</dim>
					<dim>88</dim>
					<dim>48</dim>
					<dim>80</dim>
				</port>
				<port id="1">
					<dim>1</dim>
					<dim>88</dim>
					<dim>1</dim>
					<dim>1</dim>
				</port>
			</input>
			<output>
				<port id="2" precision="FP16">
					<dim>1</dim>
					<dim>88</dim>
					<dim>48</dim>
					<dim>80</dim>
				</port>
			</output>
		</layer>
		<layer id="396" name="15541558_const" type="Const" version="opset1">
			<data element_type="f16" offset="170706" shape="" size="2"/>
			<output>
				<port id="1" precision="FP16"/>
			</output>
		</layer>
		<layer id="397" name="15551559_const" type="Const" version="opset1">
			<data element_type="f16" offset="170708" shape="" size="2"/>
			<output>
				<port id="1" precision="FP16"/>
			</output>
		</layer>
		<layer id="398" name="15561560_const" type="Const" version="opset1">
			<data element_type="f16" offset="170706" shape="" size="2"/>
			<output>
				<port id="1" precision="FP16"/>
			</output>
		</layer>
		<layer id="399" name="15571561_const" type="Const" version="opset1">
			<data element_type="f16" offset="170708" shape="" size="2"/>
			<output>
				<port id="1" precision="FP16"/>
			</output>
		</layer>
		<layer id="400" name="model/block_7_add/add/fq_input_0" type="FakeQuantize" version="opset1">
			<data levels="256"/>
			<input>
				<port id="0">
					<dim>1</dim>
					<dim>88</dim>
					<dim>48</dim>
					<dim>80</dim>
				</port>
				<port id="1"/>
				<port id="2"/>
				<port id="3"/>
				<port id="4"/>
			</input>
			<output>
				<port id="5" precision="FP16">
					<dim>1</dim>
					<dim>88</dim>
					<dim>48</dim>
					<dim>80</dim>
				</port>
			</output>
		</layer>
		<layer id="401" name="model/block_7_expand/Conv2D/fq_weights_1/Convert_to_float/Cast_06372_const" type="Const" version="opset1">
			<data element_type="u8" offset="170710" shape="528,88,1,1" size="46464"/>
			<output>
				<port id="1" precision="U8">
					<dim>528</dim>
					<dim>88</dim>
					<dim>1</dim>
					<dim>1</dim>
				</port>
			</output>
		</layer>
		<layer id="402" name="model/block_7_expand/Conv2D/fq_weights_1/Convert_to_float" type="Convert" version="opset1">
			<data destination_type="f16"/>
			<input>
				<port id="0">
					<dim>528</dim>
					<dim>88</dim>
					<dim>1</dim>
					<dim>1</dim>
				</port>
			</input>
			<output>
				<port id="1" precision="FP16">
					<dim>528</dim>
…
		<edge from-layer="566" from-port="1" to-layer="567" to-port="0"/>
		<edge from-layer="567" from-port="1" to-layer="572" to-port="0"/>
		<edge from-layer="568" from-port="1" to-layer="572" to-port="1"/>
		<edge from-layer="569" from-port="1" to-layer="572" to-port="2"/>
		<edge from-layer="570" from-port="1" to-layer="572" to-port="3"/>
		<edge from-layer="571" from-port="1" to-layer="572" to-port="4"/>
		<edge from-layer="565" from-port="5" to-layer="573" to-port="0"/>
		<edge from-layer="572" from-port="5" to-layer="573" to-port="1"/>
		<edge from-layer="573" from-port="2" to-layer="575" to-port="0"/>
		<edge from-layer="574" from-port="1" to-layer="575" to-port="1"/>
		<edge from-layer="575" from-port="2" to-layer="576" to-port="0"/>
		<edge from-layer="576" from-port="1" to-layer="581" to-port="0"/>
		<edge from-layer="577" from-port="1" to-layer="581" to-port="1"/>
		<edge from-layer="578" from-port="1" to-layer="581" to-port="2"/>
		<edge from-layer="579" from-port="1" to-layer="581" to-port="3"/>
		<edge from-layer="580" from-port="1" to-layer="581" to-port="4"/>
		<edge from-layer="582" from-port="1" to-layer="583" to-port="0"/>
		<edge from-layer="583" from-port="1" to-layer="588" to-port="0"/>
		<edge from-layer="584" from-port="1" to-layer="588" to-port="1"/>
		<edge from-layer="585" from-port="1" to-layer="588" to-port="2"/>
		<edge from-layer="586" from-port="1" to-layer="588" to-port="3"/>
		<edge from-layer="587" from-port="1" to-layer="588" to-port="4"/>
		<edge from-layer="588" from-port="5" to-layer="590" to-port="0"/>
		<edge from-layer="589" from-port="1" to-layer="590" to-port="1"/>
		<edge from-layer="581" from-port="5" to-layer="591" to-port="0"/>
		<edge from-layer="590" from-port="2" to-layer="591" to-port="1"/>
		<edge from-layer="591" from-port="2" to-layer="593" to-port="0"/>
		<edge from-layer="592" from-port="1" to-layer="593" to-port="1"/>
		<edge from-layer="593" from-port="2" to-layer="594" to-port="0"/>
		<edge from-layer="594" from-port="1" to-layer="599" to-port="0"/>
		<edge from-layer="595" from-port="1" to-layer="599" to-port="1"/>
		<edge from-layer="596" from-port="1" to-layer="599" to-port="2"/>
		<edge from-layer="597" from-port="1" to-layer="599" to-port="3"/>
		<edge from-layer="598" from-port="1" to-layer="599" to-port="4"/>
		<edge from-layer="600" from-port="1" to-layer="601" to-port="0"/>
		<edge from-layer="601" from-port="1" to-layer="606" to-port="0"/>
		<edge from-layer="602" from-port="1" to-layer="606" to-port="1"/>
		<edge from-layer="603" from-port="1" to-layer="606" to-port="2"/>
		<edge from-layer="604" from-port="1" to-layer="606" to-port="3"/>
		<edge from-layer="605" from-port="1" to-layer="606" to-port="4"/>
		<edge from-layer="599" from-port="5" to-layer="607" to-port="0"/>
		<edge from-layer="606" from-port="5" to-layer="607" to-port="1"/>
		<edge from-layer="607" from-port="2" to-layer="609" to-port="0"/>
		<edge from-layer="608" from-port="1" to-layer="609" to-port="1"/>
		<edge from-layer="609" from-port="2" to-layer="614" to-port="0"/>
		<edge from-layer="610" from-port="1" to-layer="614" to-port="1"/>
		<edge from-layer="611" from-port="1" to-layer="614" to-port="2"/>
		<edge from-layer="612" from-port="1" to-layer="614" to-port="3"/>
		<edge from-layer="613" from-port="1" to-layer="614" to-port="4"/>
		<edge from-layer="615" from-port="1" to-layer="616" to-port="0"/>
		<edge from-layer="616" from-port="1" to-layer="621" to-port="0"/>
		<edge from-layer="617" from-port="1" to-layer="621" to-port="1"/>
		<edge from-layer="618" from-port="1" to-layer="621" to-port="2"/>
		<edge from-layer="619" from-port="1" to-layer="621" to-port="3"/>
		<edge from-layer="620" from-port="1" to-layer="621" to-port="4"/>
		<edge from-layer="614" from-port="5" to-layer="622" to-port="0"/>
		<edge from-layer="621" from-port="5" to-layer="622" to-port="1"/>
		<edge from-layer="622" from-port="2" to-layer="624" to-port="0"/>
		<edge from-layer="623" from-port="1" to-layer="624" to-port="1"/>
		<edge from-layer="624" from-port="2" to-layer="625" to-port="0"/>
		<edge from-layer="625" from-port="1" to-layer="630" to-port="0"/>
		<edge from-layer="626" from-port="1" to-layer="630" to-port="1"/>
		<edge from-layer="627" from-port="1" to-layer="630" to-port="2"/>
		<edge from-layer="628" from-port="1" to-layer="630" to-port="3"/>
		<edge from-layer="629" from-port="1" to-layer="630" to-port="4"/>
		<edge from-layer="631" from-port="1" to-layer="632" to-port="0"/>
		<edge from-layer="632" from-port="1" to-layer="637" to-port="0"/>
		<edge from-layer="633" from-port="1" to-layer="637" to-port="1"/>
		<edge from-layer="634" from-port="1" to-layer="637" to-port="2"/>
		<edge from-layer="635" from-port="1" to-layer="637" to-port="3"/>
		<edge from-layer="636" from-port="1" to-layer="637" to-port="4"/>
		<edge from-layer="637" from-port="5" to-layer="639" to-port="0"/>
		<edge from-layer="638" from-port="1" to-layer="639" to-port="1"/>
		<edge from-layer="630" from-port="5" to-layer="640" to-port="0"/>
		<edge from-layer="639" from-port="2" to-layer="640" to-port="1"/>
		<edge from-layer="640" from-port="2" to-layer="642" to-port="0"/>
		<edge from-layer="641" from-port="1" to-layer="642" to-port="1"/>
		<edge from-layer="642" from-port="2" to-layer="643" to-port="0"/>
		<edge from-layer="643" from-port="1" to-layer="648" to-port="0"/>
		<edge from-layer="644" from-port="1" to-layer="648" to-port="1"/>
		<edge from-layer="645" from-port="1" to-layer="648" to-port="2"/>
		<edge from-layer="646" from-port="1" to-layer="648" to-port="3"/>
		<edge from-layer="647" from-port="1" to-layer="648" to-port="4"/>
		<edge from-layer="649" from-port="1" to-layer="650" to-port="0"/>
		<edge from-layer="650" from-port="1" to-layer="655" to-port="0"/>
		<edge from-layer="651" from-port="1" to-layer="655" to-port="1"/>
		<edge from-layer="652" from-port="1" to-layer="655" to-port="2"/>
		<edge from-layer="653" from-port="1" to-layer="655" to-port="3"/>
		<edge from-layer="654" from-port="1" to-layer="655" to-port="4"/>
		<edge from-layer="648" from-port="5" to-layer="656" to-port="0"/>
		<edge from-layer="655" from-port="5" to-layer="656" to-port="1"/>
		<edge from-layer="656" from-port="2" to-layer="658" to-port="0"/>
		<edge from-layer="657" from-port="1" to-layer="658" to-port="1"/>
		<edge from-layer="658" from-port="2" to-layer="663" to-port="0"/>
		<edge from-layer="659" from-port="1" to-layer="663" to-port="1"/>
		<edge from-layer="660" from-port="1" to-layer="663" to-port="2"/>
		<edge from-layer="661" from-port="1" to-layer="663" to-port="3"/>
		<edge from-layer="662" from-port="1" to-layer="663" to-port="4"/>
		<edge from-layer="614" from-port="5" to-layer="664" to-port="0"/>
		<edge from-layer="663" from-port="5" to-layer="664" to-port="1"/>
		<edge from-layer="664" from-port="2" to-layer="669" to-port="0"/>
		<edge from-layer="665" from-port="1" to-layer="669" to-port="1"/>
		<edge from-layer="666" from-port="1" to-layer="669" to-port="2"/>
		<edge from-layer="667" from-port="1" to-layer="669" to-port="3"/>
		<edge from-layer="668" from-port="1" to-layer="669" to-port="4"/>
		<edge from-layer="670" from-port="1" to-layer="671" to-port="0"/>
		<edge from-layer="671" from-port="1" to-layer="676" to-port="0"/>
		<edge from-layer="672" from-port="1" to-layer="676" to-port="1"/>
		<edge from-layer="673" from-port="1" to-layer="676" to-port="2"/>
		<edge from-layer="674" from-port="1" to-layer="676" to-port="3"/>
		<edge from-layer="675" from-port="1" to-layer="676" to-port="4"/>
		<edge from-layer="669" from-port="5" to-layer="677" to-port="0"/>
		<edge from-layer="676" from-port="5" to-layer="677" to-port="1"/>
		<edge from-layer="677" from-port="2" to-layer="679" to-port="0"/>
		<edge from-layer="678" from-port="1" to-layer="679" to-port="1"/>
		<edge from-layer="679" from-port="2" to-layer="680" to-port="0"/>
		<edge from-layer="680" from-port="1" to-layer="685" to-port="0"/>
		<edge from-layer="681" from-port="1" to-layer="685" to-port="1"/>
		<edge from-layer="682" from-port="1" to-layer="685" to-port="2"/>
		<edge from-layer="683" from-port="1" to-layer="685" to-port="3"/>
		<edge from-layer="684" from-port="1" to-layer="685" to-port="4"/>
		<edge from-layer="686" from-port="1" to-layer="687" to-port="0"/>
		<edge from-layer="687" from-port="1" to-layer="692" to-port="0"/>
		<edge from-layer="688" from-port="1" to-layer="692" to-port="1"/>
		<edge from-layer="689" from-port="1" to-layer="692" to-port="2"/>
		<edge from-layer="690" from-port="1" to-layer="692" to-port="3"/>
		<edge from-layer="691" from-port="1" to-layer="692" to-port="4"/>
		<edge from-layer="692" from-port="5" to-layer="694" to-port="0"/>
		<edge from-layer="693" from-port="1" to-layer="694" to-port="1"/>
		<edge from-layer="685" from-port="5" to-layer="695" to-port="0"/>
		<edge from-layer="694" from-port="2" to-layer="695" to-port="1"/>
		<edge from-layer="695" from-port="2" to-layer="697" to-port="0"/>
		<edge from-layer="696" from-port="1" to-layer="697" to-port="1"/>
		<edge from-layer="697" from-port="2" to-layer="698" to-port="0"/>
		<edge from-layer="698" from-port="1" to-layer="703" to-port="0"/>
		<edge from-layer="699" from-port="1" to-layer="703" to-port="1"/>
		<edge from-layer="700" from-port="1" to-layer="703" to-port="2"/>
		<edge from-layer="701" from-port="1" to-layer="703" to-port="3"/>
		<edge from-layer="702" from-port="1" to-layer="703" to-port="4"/>
		<edge from-layer="704" from-port="1" to-layer="705" to-port="0"/>
		<edge from-layer="705" from-port="1" to-layer="710" to-port="0"/>
		<edge from-layer="706" from-port="1" to-layer="710" to-port="1"/>
		<edge from-layer="707" from-port="1" to-layer="710" to-port="2"/>
		<edge from-layer="708" from-port="1" to-layer="710" to-port="3"/>
		<edge from-layer="709" from-port="1" to-layer="710" to-port="4"/>
		<edge from-layer="703" from-port="5" to-layer="711" to-port="0"/>
		<edge from-layer="710" from-port="5" to-layer="711" to-port="1"/>
		<edge from-layer="711" from-port="2" to-layer="713" to-port="0"/>
		<edge from-layer="712" from-port="1" to-layer="713" to-port="1"/>
		<edge from-layer="713" from-port="2" to-layer="718" to-port="0"/>
		<edge from-layer="714" from-port="1" to-layer="718" to-port="1"/>
		<edge from-layer="715" from-port="1" to-layer="718" to-port="2"/>
		<edge from-layer="716" from-port="1" to-layer="718" to-port="3"/>
		<edge from-layer="717" from-port="1" to-layer="718" to-port="4"/>
		<edge from-layer="669" from-port="5" to-layer="719" to-port="0"/>
		<edge from-layer="718" from-port="5" to-layer="719" to-port="1"/>
		<edge from-layer="719" from-port="2" to-layer="724" to-port="0"/>
		<edge from-layer="720" from-port="1" to-layer="724" to-port="1"/>
		<edge from-layer="721" from-port="1" to-layer="724" to-port="2"/>
		<edge from-layer="722" from-port="1" to-layer="724" to-port="3"/>
		<edge from-layer="723" from-port="1" to-layer="724" to-port="4"/>
		<edge from-layer="725" from-port="1" to-layer="726" to-port="0"/>
		<edge from-layer="726" from-port="1" to-layer="731" to-port="0"/>
		<edge from-layer="727" from-port="1" to-layer="731" to-port="1"/>
		<edge from-layer="728" from-port="1" to-layer="731" to-port="2"/>
		<edge from-layer="729" from-port="1" to-layer="731" to-port="3"/>
		<edge from-layer="730" from-port="1" to-layer="731" to-port="4"/>
		<edge from-layer="724" from-port="5" to-layer="732" to-port="0"/>
		<edge from-layer="731" from-port="5" to-layer="732" to-port="1"/>
		<edge from-layer="732" from-port="2" to-layer="734" to-port="0"/>
		<edge from-layer="733" from-port="1" to-layer="734" to-port="1"/>
		<edge from-layer="734" from-port="2" to-layer="739" to-port="0"/>
		<edge from-layer="735" from-port="1" to-layer="739" to-port="1"/>
		<edge from-layer="736" from-port="1" to-layer="739" to-port="2"/>
		<edge from-layer="737" from-port="1" to-layer="739" to-port="3"/>
		<edge from-layer="738" from-port="1" to-layer="739" to-port="4"/>
		<edge from-layer="740" from-port="1" to-layer="741" to-port="0"/>
		<edge from-layer="741" from-port="1" to-layer="746" to-port="0"/>
		<edge from-layer="742" from-port="1" to-layer="746" to-port="1"/>
		<edge from-layer="743" from-port="1" to-layer="746" to-port="2"/>
		<edge from-layer="744" from-port="1" to-layer="746" to-port="3"/>
		<edge from-layer="745" from-port="1" to-layer="746" to-port="4"/>
		<edge from-layer="724" from-port="5" to-layer="747" to-port="0"/>
		<edge from-layer="746" from-port="5" to-layer="747" to-port="1"/>
		<edge from-layer="747" from-port="2" to-layer="749" to-port="0"/>
		<edge from-layer="748" from-port="1" to-layer="749" to-port="1"/>
		<edge from-layer="749" from-port="2" to-layer="750" to-port="0"/>
		<edge from-layer="750" from-port="1" to-layer="755" to-port="0"/>
		<edge from-layer="751" from-port="1" to-layer="755" to-port="1"/>
		<edge from-layer="752" from-port="1" to-layer="755" to-port="2"/>
		<edge from-layer="753" from-port="1" to-layer="755" to-port="3"/>
		<edge from-layer="754" from-port="1" to-layer="755" to-port="4"/>
		<edge from-layer="756" from-port="1" to-layer="757" to-port="0"/>
		<edge from-layer="757" from-port="1" to-layer="762" to-port="0"/>
		<edge from-layer="758" from-port="1" to-layer="762" to-port="1"/>
		<edge from-layer="759" from-port="1" to-layer="762" to-port="2"/>
		<edge from-layer="760" from-port="1" to-layer="762" to-port="3"/>
		<edge from-layer="761" from-port="1" to-layer="762" to-port="4"/>
		<edge from-layer="762" from-port="5" to-layer="764" to-port="0"/>
		<edge from-layer="763" from-port="1" to-layer="764" to-port="1"/>
		<edge from-layer="755" from-port="5" to-layer="765" to-port="0"/>
		<edge from-layer="764" from-port="2" to-layer="765" to-port="1"/>
		<edge from-layer="765" from-port="2" to-layer="767" to-port="0"/>
		<edge from-layer="766" from-port="1" to-layer="767" to-port="1"/>
		<edge from-layer="767" from-port="2" to-layer="768" to-port="0"/>
		<edge from-layer="768" from-port="1" to-layer="773" to-port="0"/>
		<edge from-layer="769" from-port="1" to-layer="773" to-port="1"/>
		<edge from-layer="770" from-port="1" to-layer="773" to-port="2"/>
		<edge from-layer="771" from-port="1" to-layer="773" to-port="3"/>
		<edge from-layer="772" from-port="1" to-layer="773" to-port="4"/>
		<edge from-layer="774" from-port="1" to-layer="775" to-port="0"/>
		<edge from-layer="775" from-port="1" to-layer="780" to-port="0"/>
		<edge from-layer="776" from-port="1" to-layer="780" to-port="1"/>
		<edge from-layer="777" from-port="1" to-layer="780" to-port="2"/>
		<edge from-layer="778" from-port="1" to-layer="780" to-port="3"/>
		<edge from-layer="779" from-port="1" to-layer="780" to-port="4"/>
		<edge from-layer="773" from-port="5" to-layer="781" to-port="0"/>
		<edge from-layer="780" from-port="5" to-layer="781" to-port="1"/>
		<edge from-layer="781" from-port="2" to-layer="783" to-port="0"/>
		<edge from-layer="782" from-port="1" to-layer="783" to-port="1"/>
		<edge from-layer="783" from-port="2" to-layer="788" to-port="0"/>
		<edge from-layer="784" from-port="1" to-layer="788" to-port="1"/>
		<edge from-layer="785" from-port="1" to-layer="788" to-port="2"/>
		<edge from-layer="786" from-port="1" to-layer="788" to-port="3"/>
		<edge from-layer="787" from-port="1" to-layer="788" to-port="4"/>
		<edge from-layer="789" from-port="1" to-layer="790" to-port="0"/>
		<edge from-layer="790" from-port="1" to-layer="795" to-port="0"/>
		<edge from-layer="791" from-port="1" to-layer="795" to-port="1"/>
		<edge from-layer="792" from-port="1" to-layer="795" to-port="2"/>
		<edge from-layer="793" from-port="1" to-layer="795" to-port="3"/>
		<edge from-layer="794" from-port="1" to-layer="795" to-port="4"/>
		<edge from-layer="788" from-port="5" to-layer="796" to-port="0"/>
		<edge from-layer="795" from-port="5" to-layer="796" to-port="1"/>
		<edge from-layer="796" from-port="2" to-layer="798" to-port="0"/>
		<edge from-layer="797" from-port="1" to-layer="798" to-port="1"/>
		<edge from-layer="798" from-port="2" to-layer="799" to-port="0"/>
		<edge from-layer="799" from-port="1" to-layer="804" to-port="0"/>
		<edge from-layer="800" from-port="1" to-layer="804" to-port="1"/>
		<edge from-layer="801" from-port="1" to-layer="804" to-port="2"/>
		<edge from-layer="802" from-port="1" to-layer="804" to-port="3"/>
		<edge from-layer="803" from-port="1" to-layer="804" to-port="4"/>
		<edge from-layer="805" from-port="1" to-layer="806" to-port="0"/>
		<edge from-layer="806" from-port="1" to-layer="811" to-port="0"/>
		<edge from-layer="807" from-port="1" to-layer="811" to-port="1"/>
		<edge from-layer="808" from-port="1" to-layer="811" to-port="2"/>
		<edge from-layer="809" from-port="1" to-layer="811" to-port="3"/>
		<edge from-layer="810" from-port="1" to-layer="811" to-port="4"/>
		<edge from-layer="811" from-port="5" to-layer="813" to-port="0"/>
		<edge from-layer="812" from-port="1" to-layer="813" to-port="1"/>
		<edge from-layer="804" from-port="5" to-layer="814" to-port="0"/>
		<edge from-layer="813" from-port="2" to-layer="814" to-port="1"/>
		<edge from-layer="814" from-port="2" to-layer="816" to-port="0"/>
		<edge from-layer="815" from-port="1" to-layer="816" to-port="1"/>
		<edge from-layer="816" from-port="2" to-layer="817" to-port="0"/>
		<edge from-layer="817" from-port="1" to-layer="822" to-port="0"/>
		<edge from-layer="818" from-port="1" to-layer="822" to-port="1"/>
		<edge from-layer="819" from-port="1" to-layer="822" to-port="2"/>
		<edge from-layer="820" from-port="1" to-layer="822" to-port="3"/>
		<edge from-layer="821" from-port="1" to-layer="822" to-port="4"/>
		<edge from-layer="823" from-port="1" to-layer="824" to-port="0"/>
		<edge from-layer="824" from-port="1" to-layer="829" to-port="0"/>
		<edge from-layer="825" from-port="1" to-layer="829" to-port="1"/>
		<edge from-layer="826" from-port="1" to-layer="829" to-port="2"/>
		<edge from-layer="827" from-port="1" to-layer="829" to-port="3"/>
		<edge from-layer="828" from-port="1" to-layer="829" to-port="4"/>
		<edge from-layer="822" from-port="5" to-layer="830" to-port="0"/>
		<edge from-layer="829" from-port="5" to-layer="830" to-port="1"/>
		<edge from-layer="830" from-port="2" to-layer="832" to-port="0"/>
		<edge from-layer="831" from-port="1" to-layer="832" to-port="1"/>
		<edge from-layer="832" from-port="2" to-layer="837" to-port="0"/>
		<edge from-layer="833" from-port="1" to-layer="837" to-port="1"/>
		<edge from-layer="834" from-port="1" to-layer="837" to-port="2"/>
		<edge from-layer="835" from-port="1" to-layer="837" to-port="3"/>
		<edge from-layer="836" from-port="1" to-layer="837" to-port="4"/>
		<edge from-layer="788" from-port="5" to-layer="838" to-port="0"/>
		<edge from-layer="837" from-port="5" to-layer="838" to-port="1"/>
		<edge from-layer="838" from-port="2" to-layer="843" to-port="0"/>
		<edge from-layer="839" from-port="1" to-layer="843" to-port="1"/>
		<edge from-layer="840" from-port="1" to-layer="843" to-port="2"/>
		<edge from-layer="841" from-port="1" to-layer="843" to-port="3"/>
		<edge from-layer="842" from-port="1" to-layer="843" to-port="4"/>
		<edge from-layer="844" from-port="1" to-layer="845" to-port="0"/>
		<edge from-layer="845" from-port="1" to-layer="850" to-port="0"/>
		<edge from-layer="846" from-port="1" to-layer="850" to-port="1"/>
		<edge from-layer="847" from-port="1" to-layer="850" to-port="2"/>
		<edge from-layer="848" from-port="1" to-layer="850" to-port="3"/>
		<edge from-layer="849" from-port="1" to-layer="850" to-port="4"/>
		<edge from-layer="843" from-port="5" to-layer="851" to-port="0"/>
		<edge from-layer="850" from-port="5" to-layer="851" to-port="1"/>
		<edge from-layer="851" from-port="2" to-layer="853" to-port="0"/>
		<edge from-layer="852" from-port="1" to-layer="853" to-port="1"/>
		<edge from-layer="853" from-port="2" to-layer="854" to-port="0"/>
		<edge from-layer="854" from-port="1" to-layer="859" to-port="0"/>
		<edge from-layer="855" from-port="1" to-layer="859" to-port="1"/>
		<edge from-layer="856" from-port="1" to-layer="859" to-port="2"/>
		<edge from-layer="857" from-port="1" to-layer="859" to-port="3"/>
		<edge from-layer="858" from-port="1" to-layer="859" to-port="4"/>
		<edge from-layer="860" from-port="1" to-layer="861" to-port="0"/>
		<edge from-layer="861" from-port="1" to-layer="866" to-port="0"/>
		<edge from-layer="862" from-port="1" to-layer="866" to-port="1"/>
		<edge from-layer="863" from-port="1" to-layer="866" to-port="2"/>
		<edge from-layer="864" from-port="1" to-layer="866" to-port="3"/>
		<edge from-layer="865" from-port="1" to-layer="866" to-port="4"/>
		<edge from-layer="866" from-port="5" to-layer="868" to-port="0"/>
		<edge from-layer="867" from-port="1" to-layer="868" to-port="1"/>
		<edge from-layer="859" from-port="5" to-layer="869" to-port="0"/>
		<edge from-layer="868" from-port="2" to-layer="869" to-port="1"/>
		<edge from-layer="869" from-port="2" to-layer="871" to-port="0"/>
		<edge from-layer="870" from-port="1" to-layer="871" to-port="1"/>
		<edge from-layer="871" from-port="2" to-layer="872" to-port="0"/>
		<edge from-layer="872" from-port="1" to-layer="877" to-port="0"/>
		<edge from-layer="873" from-port="1" to-layer="877" to-port="1"/>
		<edge from-layer="874" from-port="1" to-layer="877" to-port="2"/>
		<edge from-layer="875" from-port="1" to-layer="877" to-port="3"/>
		<edge from-layer="876" from-port="1" to-layer="877" to-port="4"/>
		<edge from-layer="878" from-port="1" to-layer="879" to-port="0"/>
		<edge from-layer="879" from-port="1" to-layer="884" to-port="0"/>
		<edge from-layer="880" from-port="1" to-layer="884" to-port="1"/>
		<edge from-layer="881" from-port="1" to-layer="884" to-port="2"/>
		<edge from-layer="882" from-port="1" to-layer="884" to-port="3"/>
		<edge from-layer="883" from-port="1" to-layer="884" to-port="4"/>
		<edge from-layer="877" from-port="5" to-layer="885" to-port="0"/>
		<edge from-layer="884" from-port="5" to-layer="885" to-port="1"/>
		<edge from-layer="885" from-port="2" to-layer="887" to-port="0"/>
		<edge from-layer="886" from-port="1" to-layer="887" to-port="1"/>
		<edge from-layer="887" from-port="2" to-layer="892" to-port="0"/>
		<edge from-layer="888" from-port="1" to-layer="892" to-port="1"/>
		<edge from-layer="889" from-port="1" to-layer="892" to-port="2"/>
		<edge from-layer="890" from-port="1" to-layer="892" to-port="3"/>
		<edge from-layer="891" from-port="1" to-layer="892" to-port="4"/>
		<edge from-layer="843" from-port="5" to-layer="893" to-port="0"/>
		<edge from-layer="892" from-port="5" to-layer="893" to-port="1"/>
		<edge from-layer="893" from-port="2" to-layer="898" to-port="0"/>
		<edge from-layer="894" from-port="1" to-layer="898" to-port="1"/>
		<edge from-layer="895" from-port="1" to-layer="898" to-port="2"/>
		<edge from-layer="896" from-port="1" to-layer="898" to-port="3"/>
		<edge from-layer="897" from-port="1" to-layer="898" to-port="4"/>
		<edge from-layer="899" from-port="1" to-layer="900" to-port="0"/>
		<edge from-layer="900" from-port="1" to-layer="905" to-port="0"/>
		<edge from-layer="901" from-port="1" to-layer="905" to-port="1"/>
		<edge from-layer="902" from-port="1" to-layer="905" to-port="2"/>
		<edge from-layer="903" from-port="1" to-layer="905" to-port="3"/>
		<edge from-layer="904" from-port="1" to-layer="905" to-port="4"/>
		<edge from-layer="898" from-port="5" to-layer="906" to-port="0"/>
		<edge from-layer="905" from-port="5" to-layer="906" to-port="1"/>
		<edge from-layer="906" from-port="2" to-layer="908" to-port="0"/>
		<edge from-layer="907" from-port="1" to-layer="908" to-port="1"/>
		<edge from-layer="908" from-port="2" to-layer="909" to-port="0"/>
		<edge from-layer="909" from-port="1" to-layer="914" to-port="0"/>
		<edge from-layer="910" from-port="1" to-layer="914" to-port="1"/>
		<edge from-layer="911" from-port="1" to-layer="914" to-port="2"/>
		<edge from-layer="912" from-port="1" to-layer="914" to-port="3"/>
		<edge from-layer="913" from-port="1" to-layer="914" to-port="4"/>
		<edge from-layer="915" from-port="1" to-layer="916" to-port="0"/>
		<edge from-layer="916" from-port="1" to-layer="921" to-port="0"/>
		<edge from-layer="917" from-port="1" to-layer="921" to-port="1"/>
		<edge from-layer="918" from-port="1" to-layer="921" to-port="2"/>
		<edge from-layer="919" from-port="1" to-layer="921" to-port="3"/>
		<edge from-layer="920" from-port="1" to-layer="921" to-port="4"/>
		<edge from-layer="921" from-port="5" to-layer="923" to-port="0"/>
		<edge from-layer="922" from-port="1" to-layer="923" to-port="1"/>
		<edge from-layer="914" from-port="5" to-layer="924" to-port="0"/>
		<edge from-layer="923" from-port="2" to-layer="924" to-port="1"/>
		<edge from-layer="924" from-port="2" to-layer="926" to-port="0"/>
		<edge from-layer="925" from-port="1" to-layer="926" to-port="1"/>
		<edge from-layer="926" from-port="2" to-layer="927" to-port="0"/>
		<edge from-layer="927" from-port="1" to-layer="932" to-port="0"/>
		<edge from-layer="928" from-port="1" to-layer="932" to-port="1"/>
		<edge from-layer="929" from-port="1" to-layer="932" to-port="2"/>
		<edge from-layer="930" from-port="1" to-layer="932" to-port="3"/>
		<edge from-layer="931" from-port="1" to-layer="932" to-port="4"/>
		<edge from-layer="933" from-port="1" to-layer="934" to-port="0"/>
		<edge from-layer="934" from-port="1" to-layer="939" to-port="0"/>
		<edge from-layer="935" from-port="1" to-layer="939" to-port="1"/>
		<edge from-layer="936" from-port="1" to-layer="939" to-port="2"/>
		<edge from-layer="937" from-port="1" to-layer="939" to-port="3"/>
		<edge from-layer="938" from-port="1" to-layer="939" to-port="4"/>
		<edge from-layer="932" from-port="5" to-layer="940" to-port="0"/>
		<edge from-layer="939" from-port="5" to-layer="940" to-port="1"/>
		<edge from-layer="940" from-port="2" to-layer="942" to-port="0"/>
		<edge from-layer="941" from-port="1" to-layer="942" to-port="1"/>
		<edge from-layer="942" from-port="2" to-layer="947" to-port="0"/>
		<edge from-layer="943" from-port="1" to-layer="947" to-port="1"/>
		<edge from-layer="944" from-port="1" to-layer="947" to-port="2"/>
		<edge from-layer="945" from-port="1" to-layer="947" to-port="3"/>
		<edge from-layer="946" from-port="1" to-layer="947" to-port="4"/>
		<edge from-layer="948" from-port="1" to-layer="949" to-port="0"/>
		<edge from-layer="949" from-port="1" to-layer="954" to-port="0"/>
		<edge from-layer="950" from-port="1" to-layer="954" to-port="1"/>
		<edge from-layer="951" from-port="1" to-layer="954" to-port="2"/>
		<edge from-layer="952" from-port="1" to-layer="954" to-port="3"/>
		<edge from-layer="953" from-port="1" to-layer="954" to-port="4"/>
		<edge from-layer="947" from-port="5" to-layer="955" to-port="0"/>
		<edge from-layer="954" from-port="5" to-layer="955" to-port="1"/>
		<edge from-layer="955" from-port="2" to-layer="957" to-port="0"/>
		<edge from-layer="956" from-port="1" to-layer="957" to-port="1"/>
		<edge from-layer="957" from-port="2" to-layer="958" to-port="0"/>
		<edge from-layer="958" from-port="1" to-layer="963" to-port="0"/>
		<edge from-layer="959" from-port="1" to-layer="963" to-port="1"/>
		<edge from-layer="960" from-port="1" to-layer="963" to-port="2"/>
		<edge from-layer="961" from-port="1" to-layer="963" to-port="3"/>
		<edge from-layer="962" from-port="1" to-layer="963" to-port="4"/>
		<edge from-layer="964" from-port="1" to-layer="965" to-port="0"/>
		<edge from-layer="965" from-port="1" to-layer="970" to-port="0"/>
		<edge from-layer="966" from-port="1" to-layer="970" to-port="1"/>
		<edge from-layer="967" from-port="1" to-layer="970" to-port="2"/>
		<edge from-layer="968" from-port="1" to-layer="970" to-port="3"/>
		<edge from-layer="969" from-port="1" to-layer="970" to-port="4"/>
		<edge from-layer="963" from-port="5" to-layer="971" to-port="0"/>
		<edge from-layer="970" from-port="5" to-layer="971" to-port="1"/>
		<edge from-layer="971" from-port="2" to-layer="973" to-port="0"/>
		<edge from-layer="972" from-port="1" to-layer="973" to-port="1"/>
		<edge from-layer="973" from-port="2" to-layer="978" to-port="0"/>
		<edge from-layer="974" from-port="1" to-layer="978" to-port="1"/>
		<edge from-layer="975" from-port="1" to-layer="978" to-port="2"/>
		<edge from-layer="976" from-port="1" to-layer="978" to-port="3"/>
		<edge from-layer="977" from-port="1" to-layer="978" to-port="4"/>
		<edge from-layer="973" from-port="2" to-layer="979" to-port="0"/>
		<edge from-layer="979" from-port="1" to-layer="982" to-port="0"/>
		<edge from-layer="980" from-port="1" to-layer="982" to-port="1"/>
		<edge from-layer="981" from-port="1" to-layer="982" to-port="2"/>
		<edge from-layer="982" from-port="3" to-layer="986" to-port="0"/>
		<edge from-layer="983" from-port="1" to-layer="986" to-port="1"/>
		<edge from-layer="984" from-port="1" to-layer="986" to-port="2"/>
		<edge from-layer="985" from-port="1" to-layer="986" to-port="3"/>
		<edge from-layer="986" from-port="4" to-layer="988" to-port="0"/>
		<edge from-layer="987" from-port="1" to-layer="988" to-port="1"/>
		<edge from-layer="988" from-port="2" to-layer="989" to-port="0"/>
		<edge from-layer="978" from-port="5" to-layer="990" to-port="0"/>
		<edge from-layer="989" from-port="1" to-layer="990" to-port="1"/>
		<edge from-layer="990" from-port="2" to-layer="995" to-port="0"/>
		<edge from-layer="991" from-port="1" to-layer="995" to-port="1"/>
		<edge from-layer="992" from-port="1" to-layer="995" to-port="2"/>
		<edge from-layer="993" from-port="1" to-layer="995" to-port="3"/>
		<edge from-layer="994" from-port="1" to-layer="995" to-port="4"/>
		<edge from-layer="739" from-port="5" to-layer="996" to-port="0"/>
		<edge from-layer="995" from-port="5" to-layer="996" to-port="1"/>
		<edge from-layer="996" from-port="2" to-layer="1001" to-port="0"/>
		<edge from-layer="997" from-port="1" to-layer="1001" to-port="1"/>
		<edge from-layer="998" from-port="1" to-layer="1001" to-port="2"/>
		<edge from-layer="999" from-port="1" to-layer="1001" to-port="3"/>
		<edge from-layer="1000" from-port="1" to-layer="1001" to-port="4"/>
		<edge from-layer="996" from-port="2" to-layer="1002" to-port="0"/>
		<edge from-layer="1002" from-port="1" to-layer="1005" to-port="0"/>
		<edge from-layer="1003" from-port="1" to-layer="1005" to-port="1"/>
		<edge from-layer="1004" from-port="1" to-layer="1005" to-port="2"/>
		<edge from-layer="1005" from-port="3" to-layer="1009" to-port="0"/>
		<edge from-layer="1006" from-port="1" to-layer="1009" to-port="1"/>
		<edge from-layer="1007" from-port="1" to-layer="1009" to-port="2"/>
		<edge from-layer="1008" from-port="1" to-layer="1009" to-port="3"/>
		<edge from-layer="1009" from-port="4" to-layer="1011" to-port="0"/>
		<edge from-layer="1010" from-port="1" to-layer="1011" to-port="1"/>
		<edge from-layer="1011" from-port="2" to-layer="1012" to-port="0"/>
		<edge from-layer="1001" from-port="5" to-layer="1013" to-port="0"/>
		<edge from-layer="1012" from-port="1" to-layer="1013" to-port="1"/>
		<edge from-layer="1013" from-port="2" to-layer="1018" to-port="0"/>
		<edge from-layer="1014" from-port="1" to-layer="1018" to-port="1"/>
		<edge from-layer="1015" from-port="1" to-layer="1018" to-port="2"/>
		<edge from-layer="1016" from-port="1" to-layer="1018" to-port="3"/>
		<edge from-layer="1017" from-port="1" to-layer="1018" to-port="4"/>
		<edge from-layer="351" from-port="5" to-layer="1019" to-port="0"/>
		<edge from-layer="1018" from-port="5" to-layer="1019" to-port="1"/>
		<edge from-layer="1019" from-port="2" to-layer="1024" to-port="0"/>
		<edge from-layer="1020" from-port="1" to-layer="1024" to-port="1"/>
		<edge from-layer="1021" from-port="1" to-layer="1024" to-port="2"/>
		<edge from-layer="1022" from-port="1" to-layer="1024" to-port="3"/>
		<edge from-layer="1023" from-port="1" to-layer="1024" to-port="4"/>
		<edge from-layer="1019" from-port="2" to-layer="1025" to-port="0"/>
		<edge from-layer="1025" from-port="1" to-layer="1028" to-port="0"/>
		<edge from-layer="1026" from-port="1" to-layer="1028" to-port="1"/>
		<edge from-layer="1027" from-port="1" to-layer="1028" to-port="2"/>
		<edge from-layer="1028" from-port="3" to-layer="1032" to-port="0"/>
		<edge from-layer="1029" from-port="1" to-layer="1032" to-port="1"/>
		<edge from-layer="1030" from-port="1" to-layer="1032" to-port="2"/>
		<edge from-layer="1031" from-port="1" to-layer="1032" to-port="3"/>
		<edge from-layer="1032" from-port="4" to-layer="1034" to-port="0"/>
		<edge from-layer="1033" from-port="1" to-layer="1034" to-port="1"/>
		<edge from-layer="1034" from-port="2" to-layer="1035" to-port="0"/>
		<edge from-layer="1024" from-port="5" to-layer="1036" to-port="0"/>
		<edge from-layer="1035" from-port="1" to-layer="1036" to-port="1"/>
		<edge from-layer="1036" from-port="2" to-layer="1041" to-port="0"/>
		<edge from-layer="1037" from-port="1" to-layer="1041" to-port="1"/>
		<edge from-layer="1038" from-port="1" to-layer="1041" to-port="2"/>
		<edge from-layer="1039" from-port="1" to-layer="1041" to-port="3"/>
		<edge from-layer="1040" from-port="1" to-layer="1041" to-port="4"/>
		<edge from-layer="177" from-port="5" to-layer="1042" to-port="0"/>
		<edge from-layer="1041" from-port="5" to-layer="1042" to-port="1"/>
		<edge from-layer="1042" from-port="2" to-layer="1043" to-port="0"/>
		<edge from-layer="1044" from-port="1" to-layer="1045" to-port="0"/>
		<edge from-layer="1045" from-port="1" to-layer="1050" to-port="0"/>
		<edge from-layer="1046" from-port="1" to-layer="1050" to-port="1"/>
		<edge from-layer="1047" from-port="1" to-layer="1050" to-port="2"/>
		<edge from-layer="1048" from-port="1" to-layer="1050" to-port="3"/>
		<edge from-layer="1049" from-port="1" to-layer="1050" to-port="4"/>
		<edge from-layer="162" from-port="5" to-layer="1051" to-port="0"/>
		<edge from-layer="1050" from-port="5" to-layer="1051" to-port="1"/>
		<edge from-layer="1051" from-port="2" to-layer="1053" to-port="0"/>
		<edge from-layer="1052" from-port="1" to-layer="1053" to-port="1"/>
		<edge from-layer="1053" from-port="2" to-layer="1058" to-port="0"/>
		<edge from-layer="1054" from-port="1" to-layer="1058" to-port="1"/>
		<edge from-layer="1055" from-port="1" to-layer="1058" to-port="2"/>
		<edge from-layer="1056" from-port="1" to-layer="1058" to-port="3"/>
		<edge from-layer="1057" from-port="1" to-layer="1058" to-port="4"/>
		<edge from-layer="1059" from-port="1" to-layer="1060" to-port="0"/>
		<edge from-layer="1060" from-port="1" to-layer="1065" to-port="0"/>
		<edge from-layer="1061" from-port="1" to-layer="1065" to-port="1"/>
		<edge from-layer="1062" from-port="1" to-layer="1065" to-port="2"/>
		<edge from-layer="1063" from-port="1" to-layer="1065" to-port="3"/>
		<edge from-layer="1064" from-port="1" to-layer="1065" to-port="4"/>
		<edge from-layer="336" from-port="5" to-layer="1066" to-port="0"/>
		<edge from-layer="1065" from-port="5" to-layer="1066" to-port="1"/>
		<edge from-layer="1066" from-port="2" to-layer="1068" to-port="0"/>
		<edge from-layer="1067" from-port="1" to-layer="1068" to-port="1"/>
		<edge from-layer="1068" from-port="2" to-layer="1073" to-port="0"/>
		<edge from-layer="1069" from-port="1" to-layer="1073" to-port="1"/>
		<edge from-layer="1070" from-port="1" to-layer="1073" to-port="2"/>
		<edge from-layer="1071" from-port="1" to-layer="1073" to-port="3"/>
		<edge from-layer="1072" from-port="1" to-layer="1073" to-port="4"/>
		<edge from-layer="1074" from-port="1" to-layer="1075" to-port="0"/>
		<edge from-layer="1075" from-port="1" to-layer="1080" to-port="0"/>
		<edge from-layer="1076" from-port="1" to-layer="1080" to-port="1"/>
		<edge from-layer="1077" from-port="1" to-layer="1080" to-port="2"/>
		<edge from-layer="1078" from-port="1" to-layer="1080" to-port="3"/>
		<edge from-layer="1079" from-port="1" to-layer="1080" to-port="4"/>
		<edge from-layer="724" from-port="5" to-layer="1081" to-port="0"/>
		<edge from-layer="1080" from-port="5" to-layer="1081" to-port="1"/>
		<edge from-layer="1081" from-port="2" to-layer="1083" to-port="0"/>
		<edge from-layer="1082" from-port="1" to-layer="1083" to-port="1"/>
		<edge from-layer="1083" from-port="2" to-layer="1088" to-port="0"/>
		<edge from-layer="1084" from-port="1" to-layer="1088" to-port="1"/>
		<edge from-layer="1085" from-port="1" to-layer="1088" to-port="2"/>
		<edge from-layer="1086" from-port="1" to-layer="1088" to-port="3"/>
		<edge from-layer="1087" from-port="1" to-layer="1088" to-port="4"/>
		<edge from-layer="1089" from-port="1" to-layer="1090" to-port="0"/>
		<edge from-layer="1090" from-port="1" to-layer="1095" to-port="0"/>
		<edge from-layer="1091" from-port="1" to-layer="1095" to-port="1"/>
		<edge from-layer="1092" from-port="1" to-layer="1095" to-port="2"/>
		<edge from-layer="1093" from-port="1" to-layer="1095" to-port="3"/>
		<edge from-layer="1094" from-port="1" to-layer="1095" to-port="4"/>
		<edge from-layer="963" from-port="5" to-layer="1096" to-port="0"/>
		<edge from-layer="1095" from-port="5" to-layer="1096" to-port="1"/>
		<edge from-layer="1096" from-port="2" to-layer="1098" to-port="0"/>
		<edge from-layer="1097" from-port="1" to-layer="1098" to-port="1"/>
		<edge from-layer="1098" from-port="2" to-layer="1103" to-port="0"/>
		<edge from-layer="1099" from-port="1" to-layer="1103" to-port="1"/>
		<edge from-layer="1100" from-port="1" to-layer="1103" to-port="2"/>
		<edge from-layer="1101" from-port="1" to-layer="1103" to-port="3"/>
		<edge from-layer="1102" from-port="1" to-layer="1103" to-port="4"/>
		<edge from-layer="1098" from-port="2" to-layer="1104" to-port="0"/>
		<edge from-layer="1104" from-port="1" to-layer="1107" to-port="0"/>
		<edge from-layer="1105" from-port="1" to-layer="1107" to-port="1"/>
		<edge from-layer="1106" from-port="1" to-layer="1107" to-port="2"/>
		<edge from-layer="1107" from-port="3" to-layer="1111" to-port="0"/>
		<edge from-layer="1108" from-port="1" to-layer="1111" to-port="1"/>
		<edge from-layer="1109" from-port="1" to-layer="1111" to-port="2"/>
		<edge from-layer="1110" from-port="1" to-layer="1111" to-port="3"/>
		<edge from-layer="1111" from-port="4" to-layer="1113" to-port="0"/>
		<edge from-layer="1112" from-port="1" to-layer="1113" to-port="1"/>
		<edge from-layer="1113" from-port="2" to-layer="1114" to-port="0"/>
		<edge from-layer="1103" from-port="5" to-layer="1115" to-port="0"/>
		<edge from-layer="1114" from-port="1" to-layer="1115" to-port="1"/>
		<edge from-layer="1115" from-port="2" to-layer="1120" to-port="0"/>
		<edge from-layer="1116" from-port="1" to-layer="1120" to-port="1"/>
		<edge from-layer="1117" from-port="1" to-layer="1120" to-port="2"/>
		<edge from-layer="1118" from-port="1" to-layer="1120" to-port="3"/>
		<edge from-layer="1119" from-port="1" to-layer="1120" to-port="4"/>
		<edge from-layer="1088" from-port="5" to-layer="1121" to-port="0"/>
		<edge from-layer="1120" from-port="5" to-layer="1121" to-port="1"/>
		<edge from-layer="1121" from-port="2" to-layer="1126" to-port="0"/>
		<edge from-layer="1122" from-port="1" to-layer="1126" to-port="1"/>
		<edge from-layer="1123" from-port="1" to-layer="1126" to-port="2"/>
		<edge from-layer="1124" from-port="1" to-layer="1126" to-port="3"/>
		<edge from-layer="1125" from-port="1" to-layer="1126" to-port="4"/>
		<edge from-layer="1121" from-port="2" to-layer="1127" to-port="0"/>
		<edge from-layer="1127" from-port="1" to-layer="1130" to-port="0"/>
		<edge from-layer="1128" from-port="1" to-layer="1130" to-port="1"/>
		<edge from-layer="1129" from-port="1" to-layer="1130" to-port="2"/>
		<edge from-layer="1130" from-port="3" to-layer="1134" to-port="0"/>
		<edge from-layer="1131" from-port="1" to-layer="1134" to-port="1"/>
		<edge from-layer="1132" from-port="1" to-layer="1134" to-port="2"/>
		<edge from-layer="1133" from-port="1" to-layer="1134" to-port="3"/>
		<edge from-layer="1134" from-port="4" to-layer="1136" to-port="0"/>
		<edge from-layer="1135" from-port="1" to-layer="1136" to-port="1"/>
		<edge from-layer="1136" from-port="2" to-layer="1137" to-port="0"/>
		<edge from-layer="1126" from-port="5" to-layer="1138" to-port="0"/>
		<edge from-layer="1137" from-port="1" to-layer="1138" to-port="1"/>
		<edge from-layer="1138" from-port="2" to-layer="1143" to-port="0"/>
		<edge from-layer="1139" from-port="1" to-layer="1143" to-port="1"/>
		<edge from-layer="1140" from-port="1" to-layer="1143" to-port="2"/>
		<edge from-layer="1141" from-port="1" to-layer="1143" to-port="3"/>
		<edge from-layer="1142" from-port="1" to-layer="1143" to-port="4"/>
		<edge from-layer="1073" from-port="5" to-layer="1144" to-port="0"/>
		<edge from-layer="1143" from-port="5" to-layer="1144" to-port="1"/>
		<edge from-layer="1144" from-port="2" to-layer="1149" to-port="0"/>
		<edge from-layer="1145" from-port="1" to-layer="1149" to-port="1"/>
		<edge from-layer="1146" from-port="1" to-layer="1149" to-port="2"/>
		<edge from-layer="1147" from-port="1" to-layer="1149" to-port="3"/>
		<edge from-layer="1148" from-port="1" to-layer="1149" to-port="4"/>
		<edge from-layer="1144" from-port="2" to-layer="1150" to-port="0"/>
		<edge from-layer="1150" from-port="1" to-layer="1153" to-port="0"/>
		<edge from-layer="1151" from-port="1" to-layer="1153" to-port="1"/>
		<edge from-layer="1152" from-port="1" to-layer="1153" to-port="2"/>
		<edge from-layer="1153" from-port="3" to-layer="1157" to-port="0"/>
		<edge from-layer="1154" from-port="1" to-layer="1157" to-port="1"/>
		<edge from-layer="1155" from-port="1" to-layer="1157" to-port="2"/>
		<edge from-layer="1156" from-port="1" to-layer="1157" to-port="3"/>
		<edge from-layer="1157" from-port="4" to-layer="1159" to-port="0"/>
		<edge from-layer="1158" from-port="1" to-layer="1159" to-port="1"/>
		<edge from-layer="1159" from-port="2" to-layer="1160" to-port="0"/>
		<edge from-layer="1149" from-port="5" to-layer="1161" to-port="0"/>
		<edge from-layer="1160" from-port="1" to-layer="1161" to-port="1"/>
		<edge from-layer="1161" from-port="2" to-layer="1166" to-port="0"/>
		<edge from-layer="1162" from-port="1" to-layer="1166" to-port="1"/>
		<edge from-layer="1163" from-port="1" to-layer="1166" to-port="2"/>
		<edge from-layer="1164" from-port="1" to-layer="1166" to-port="3"/>
		<edge from-layer="1165" from-port="1" to-layer="1166" to-port="4"/>
		<edge from-layer="1058" from-port="5" to-layer="1167" to-port="0"/>
		<edge from-layer="1166" from-port="5" to-layer="1167" to-port="1"/>
		<edge from-layer="1167" from-port="2" to-layer="1168" to-port="0"/>
	</edges>
	<meta_data>
		<MO_version value="unknown version"/>
		<cli_parameters>
			<blobs_as_inputs value="True"/>
			<caffe_parser_path value="DIR"/>
			<data_type value="FP16"/>
			<disable_nhwc_to_nchw value="False"/>
			<disable_omitting_optional value="False"/>
			<disable_resnet_optimization value="False"/>
			<disable_weights_compression value="False"/>
			<enable_concat_optimization value="False"/>
			<enable_flattening_nested_params value="False"/>
			<enable_ssd_gluoncv value="False"/>
			<extensions value="DIR"/>
			<framework value="tf"/>
			<freeze_placeholder_with_value value="{}"/>
			<generate_deprecated_IR_V2 value="False"/>
			<generate_deprecated_IR_V7 value="False"/>
			<generate_experimental_IR_V10 value="True"/>
			<input value="Placeholder"/>
			<input_model value="DIR/pixel_link_mobilenet_v2.pb"/>
			<input_model_is_text value="False"/>
			<input_shape value="[1,768,1280,3]"/>
			<k value="DIR/CustomLayersMapping.xml"/>
			<keep_quantize_ops_in_IR value="True"/>
			<keep_shape_ops value="True"/>
			<legacy_mxnet_model value="False"/>
			<log_level value="ERROR"/>
			<mean_scale_values value="{'Placeholder': {'mean': array([127.5, 127.5, 127.5]), 'scale': array([127.5])}}"/>
			<mean_values value="Placeholder[127.5,127.5,127.5]"/>
			<model_name value="text-detection-0004"/>
			<move_to_preprocess value="False"/>
			<output value="['model/segm_logits/add', 'model/link_logits_/add']"/>
			<output_dir value="DIR"/>
			<placeholder_data_types value="{}"/>
			<placeholder_shapes value="{'Placeholder': array([   1,  768, 1280,    3])}"/>
			<progress value="False"/>
			<remove_memory value="False"/>
			<remove_output_softmax value="False"/>
			<reverse_input_channels value="True"/>
			<save_params_from_nd value="False"/>
			<scale_values value="Placeholder[127.5]"/>
			<silent value="False"/>
			<stream_output value="False"/>
			<unset unset_cli_parameters="batch, counts, disable_fusing, disable_gfusing, finegrain_fusing, input_checkpoint, input_meta_graph, input_proto, input_symbol, mean_file, mean_file_offsets, nd_prefix_name, pretrained_model_name, saved_model_dir, saved_model_tags, scale, tensorboard_logdir, tensorflow_custom_layer_libraries, tensorflow_custom_operations_config_update, tensorflow_object_detection_api_pipeline_config, tensorflow_use_custom_operations_config, transformations_config"/>
		</cli_parameters>
	</meta_data>
	<quantization_parameters>
		<config>{
		'compression': {
			'algorithms': [
				{
					'name': 'DefaultQuantization',
					'params': {
						'preset': 'performance',
						'stat_subset_size': 300,
						'use_fast_bias': false
					}
				}
			],
			'target_device': 'CPU'
		},
		'engine': {
			'models': [
				{
					'name': 'text-detection-0004',
					'launchers': [
						{
							'framework': 'dlsdk',
							'tags': [
								'FP32'
							],
							'model': 'PATH',
							'weights': 'PATH',
							'adapter': {
								'type': 'pixel_link_text_detection',
								'pixel_link_out': 'model/link_logits_/add',
								'pixel_class_out': 'model/segm_logits/add',
								'pixel_class_confidence_threshold': 0.8,
								'pixel_link_confidence_threshold': 0.8,
								'min_area': 300,
								'min_height': 10
							},
							'device': 'CPU'
						}
					],
					'datasets': [
						{
							'name': 'ICDAR2015',
							'data_source': 'PATH',
							'annotation_conversion': {
								'converter': 'icdar_detection',
								'data_dir': 'PATH'
							},
							'annotation': 'icdar15_detection.pickle',
							'preprocessing': [
								{
									'type': 'resize',
									'dst_width': 1280,
									'dst_height': 768
								}
							],
							'postprocessing': [
								{
									'type': 'cast_to_int'
								},
								{
									'type': 'filter',
									'area_range': '300, 980993',
									'height_range': 10,
									'width_range': 10,
									'apply_to': 'prediction',
									'remove_filtered': true
								},
								{
									'type': 'clip_points',
									'apply_to': 'prediction'
								}
							],
							'metrics': [
								{
									'type': 'incidental_text_hmean',
									'name': 'f-measure',
									'ignore_difficult': true
								}
							]
						}
					]
				},
				{
					'name': 'text-detection-0004',
					'launchers': [
						{
							'framework': 'dlsdk',
							'tags': [
								'FP16'
							],
							'model': 'PATH',
							'weights': 'PATH',
							'adapter': {
								'type': 'pixel_link_text_detection',
								'pixel_link_out': 'model/link_logits_/add',
								'pixel_class_out': 'model/segm_logits/add',
								'pixel_class_confidence_threshold': 0.8,
								'pixel_link_confidence_threshold': 0.8,
								'min_area': 300,
								'min_height': 10
							},
							'device': 'CPU'
						}
					],
					'datasets': [
						{
							'name': 'ICDAR2015',
							'data_source': 'PATH',
							'annotation_conversion': {
								'converter': 'icdar_detection',
								'data_dir': 'PATH'
							},
							'annotation': 'icdar15_detection.pickle',
							'preprocessing': [
								{
									'type': 'resize',
									'dst_width': 1280,
									'dst_height': 768
								}
							],
							'postprocessing': [
								{
									'type': 'cast_to_int'
								},
								{
									'type': 'filter',
									'area_range': '300, 980993',
									'height_range': 10,
									'width_range': 10,
									'apply_to': 'prediction',
									'remove_filtered': true
								},
								{
									'type': 'clip_points',
									'apply_to': 'prediction'
								}
							],
							'metrics': [
								{
									'type': 'incidental_text_hmean',
									'name': 'f-measure',
									'ignore_difficult': true
								}
							]
						}
					]
				},
				{
					'name': 'text-detection-0004',
					'launchers': [
						{
							'framework': 'dlsdk',
							'tags': [
								'FP16-INT8'
							],
							'model': 'PATH',
							'weights': 'PATH',
							'adapter': {
								'type': 'pixel_link_text_detection',
								'pixel_link_out': 'model/link_logits_/add',
								'pixel_class_out': 'model/segm_logits/add',
								'pixel_class_confidence_threshold': 0.8,
								'pixel_link_confidence_threshold': 0.8,
								'min_area': 300,
								'min_height': 10
							},
							'device': 'CPU'
						}
					],
					'datasets': [
						{
							'name': 'ICDAR2015',
							'data_source': 'PATH',
							'annotation_conversion': {
								'converter': 'icdar_detection',
								'data_dir': 'PATH'
							},
							'annotation': 'icdar15_detection.pickle',
							'preprocessing': [
								{
									'type': 'resize',
									'dst_width': 1280,
									'dst_height': 768
								}
							],
							'postprocessing': [
								{
									'type': 'cast_to_int'
								},
								{
									'type': 'filter',
									'area_range': '300, 980993',
									'height_range': 10,
									'width_range': 10,
									'apply_to': 'prediction',
									'remove_filtered': true
								},
								{
									'type': 'clip_points',
									'apply_to': 'prediction'
								}
							],
							'metrics': [
								{
									'type': 'incidental_text_hmean',
									'name': 'f-measure',
									'ignore_difficult': true
								}
							]
						}
					]
				}
			],
			'global_definitions': '../dataset_definitions.yml',
			'stat_requests_number': null,
			'eval_requests_number': null,
			'type': 'accuracy_checker'
		}
	}</config>
		<version value="1.0"/>
		<cli_params value="{'evaluate': False, 'output_dir': 'PATH', 'direct_dump': True, 'log_level': 'INFO', 'pbar': False, 'keep_uncompressed_weights': False}"/>
	</quantization_parameters>
</net>
